name: "${NET_ID}"
layer {
  name: "data"
  type: "ImageSegData"
  top: "data"
  top: "label"
  #top: "data_dim"
  include {
    phase: TRAIN
  }
  transform_param {
    mirror: true
    crop_size: ${CROP_SIZE}
    mean_value: 104.008
    mean_value: 116.669
    mean_value: 122.675
    scale_factors: 0.5
    scale_factors: 0.75
    scale_factors: 1
    scale_factors: 1.25
    scale_factors: 1.5
  }
  image_data_param {
    root_folder: "${DATA_ROOT}"
    source: "${EXP}/list/${TRAIN_SET}.txt"
    batch_size: ${BATCH_SIZE}
    shuffle: true
    label_type: PIXEL
  }
}

### shrink data ###
layer {
  bottom: "data"
  top: "data_res05"
  name: "data_res05"
  type: "Interp"
  interp_param {
    shrink_factor: 2
    pad_beg: 0
    pad_end: 0
  }
}
layer {
  bottom: "data"
  top: "data_res075"
  name: "data_res075"
  type: "Interp"
  interp_param {
    shrink_factor: 4
    zoom_factor: 3
    pad_beg: 0
    pad_end: 0
  }
}

#### Embeddings ####
layer {                                                                                
  bottom: "data" name: "rgb_emb" top: "rgb_emb" type: "Power" 
    power_param { scale: 0.0039215 }
}                                                                                    
layer {
  bottom: "data"
  top: "emb1_1"
  name: "emb1_1"
  type: "Convolution"
  param { lr_mult: ${EMBS_LR1} decay_mult: 1 } param { lr_mult: ${EMBS_LR2} decay_mult: 0 }
  convolution_param {
    num_output: 64
    kernel_size: 3 pad: 1
    stride: 1
    weight_filler { type: "xavier" }
    bias_filler { type: "constant" }
  }
}
layer {
  bottom: "emb1_1"
  top: "emb1_1"
  name: "relu1_1"
  type: "ReLU"
}
layer {
  bottom: "emb1_1"
  top: "emb1_2"
  name: "emb1_2"
  type: "Convolution"
  param { lr_mult: ${EMBS_LR1} decay_mult: 1 } param { lr_mult: ${EMBS_LR2} decay_mult: 0 }
  convolution_param {
    num_output: 64
    kernel_size: 3 pad: 1
    weight_filler { type: "xavier" }
    bias_filler { type: "constant" }
  }
}
layer {
  bottom: "emb1_2"
  top: "emb1_2"
  name: "relu1_2"
  type: "ReLU"
}
layer {
  bottom: "emb1_2"
  top: "emb_pool1"
  name: "emb_pool1"
  type: "Pooling"
  pooling_param {
    pool: MAX
    kernel_size: 3 pad: 1
    stride: 2
  }
}
layer {
  bottom: "emb_pool1"
  top: "emb2_1"
  name: "emb2_1"
  type: "Convolution"
  param { lr_mult: ${EMBS_LR1} decay_mult: 1 } param { lr_mult: ${EMBS_LR2} decay_mult: 0 }
  convolution_param {
    num_output: 128
    kernel_size: 3 pad: 1
    weight_filler { type: "xavier" }
    bias_filler { type: "constant" }
  }
}
layer {
  bottom: "emb2_1"
  top: "emb2_1"
  name: "relu2_1"
  type: "ReLU"
}
layer {
  bottom: "emb2_1"
  top: "emb2_2"
  name: "emb2_2"
  type: "Convolution"
  param { lr_mult: ${EMBS_LR1} decay_mult: 1 } param { lr_mult: ${EMBS_LR2} decay_mult: 0 }
  convolution_param {
    num_output: 128
    kernel_size: 3 pad: 1
    weight_filler { type: "xavier" }
    bias_filler { type: "constant" }
  }
}
layer {
  bottom: "emb2_2"
  top: "emb2_2"
  name: "relu2_2"
  type: "ReLU"
}
layer {
  bottom: "emb2_2"
  top: "emb_pool2"
  name: "emb_pool2"
  type: "Pooling"
  pooling_param {
    pool: MAX
    kernel_size: 3 pad: 1
    stride: 2
  }
}
layer {
  bottom: "emb_pool2"
  top: "emb3_1"
  name: "emb3_1"
  type: "Convolution"
  param { lr_mult: ${EMBS_LR1} decay_mult: 1 } param { lr_mult: ${EMBS_LR2} decay_mult: 0 }
  convolution_param {
    num_output: 256
    kernel_size: 3 pad: 1
    weight_filler { type: "xavier" }
    bias_filler { type: "constant" }
  }
}
layer {
  bottom: "emb3_1"
  top: "emb3_1"
  name: "relu3_1"
  type: "ReLU"
}
layer {
  bottom: "emb3_1"
  top: "emb3_2"
  name: "emb3_2"
  type: "Convolution"
  param { lr_mult: ${EMBS_LR1} decay_mult: 1 } param { lr_mult: ${EMBS_LR2} decay_mult: 0 }
  convolution_param {
    num_output: 256
    kernel_size: 3 pad: 1
    weight_filler { type: "xavier" }
    bias_filler { type: "constant" }
  }
}
layer {
  bottom: "emb3_2"
  top: "emb3_2"
  name: "relu3_2"
  type: "ReLU"
}
layer {
  bottom: "emb3_2"
  top: "emb3_3"
  name: "emb3_3"
  type: "Convolution"
  param { lr_mult: ${EMBS_LR1} decay_mult: 1 } param { lr_mult: ${EMBS_LR2} decay_mult: 0 }
  convolution_param {
    num_output: 256
    kernel_size: 3 pad: 1
    weight_filler { type: "xavier" }
    bias_filler { type: "constant" }
  }
}
layer {
  bottom: "emb3_3"
  top: "emb3_3"
  name: "relu3_3"
  type: "ReLU"
}
# resize, for uniformity
layer {
  type: "Interp"
  bottom: "emb1_2"
  name: "emb12_resized"
  top: "emb12_resized"
  interp_param { zoom_factor: 1 }
}
layer {
  type: "Interp"
  bottom: "emb2_2"
  name: "emb22_resized"
  top: "emb22_resized"
  interp_param { zoom_factor: 2 }
}
layer {
  type: "Interp"
  bottom: "emb3_3"
  name: "emb33_resized"
  top: "emb33_resized"
  interp_param { zoom_factor: 4 }
}
# Concat, and weight
layer {
  bottom: "rgb_emb"
  bottom: "emb12_resized"
  bottom: "emb22_resized"
  bottom: "emb33_resized"
  top: "fused"
  name: "fused"
  type: "Concat"
}
layer {
  bottom: "fused"
  top: "emb"
  name: "emb"
  type: "Convolution"
  param { lr_mult: ${EMBS_LR1} decay_mult: 1 } param { lr_mult: ${EMBS_LR2} decay_mult: 0 }
  convolution_param {
    num_output: 64
    kernel_size: 1 pad: 0
    weight_filler { type: "xavier" }
    bias_filler { type: "constant" }
  }
}

###################### resolution 1 #####################
layer {
	bottom: "data"
	top: "conv1"
	name: "conv1"
	type: "Convolution"
  deletetop: true
	param {
		name: "conv1_0"
               lr_mult: ${MAIN_LR1}
               decay_mult: 1
        }
        convolution_param {
		num_output: 64
		kernel_size: 7
		pad: 3
		stride: 2
		bias_term: false
	}
}

layer {
	bottom: "conv1"
	top: "conv1"
	name: "bn_conv1"
	type: "BatchNorm"
	batch_norm_param {
		use_global_stats: true
	}
	param {
		name: "bn_conv1_0"
	      lr_mult: 0
	}
	param {
		name: "bn_conv1_1"
	      lr_mult: 0
        }
	param {
		name: "bn_conv1_2"
	      lr_mult: 0
        }
}

layer {
	bottom: "conv1"
	top: "conv1"
	name: "scale_conv1"
	type: "Scale"
	scale_param {
		bias_term: true
	}
	param {
		name: "scale_conv1_0"
	      lr_mult: 0
	}
	param {
		name: "scale_conv1_1"
	      lr_mult: 0
	}
}

layer {
	top: "conv1"
	bottom: "conv1"
	name: "conv1_relu"
	type: "ReLU"
}

layer {
	bottom: "conv1"
	top: "pool1"
	name: "pool1"
	type: "Pooling"
	pooling_param {
		kernel_size: 3
		stride: 2
		pad: 1
		pool: MAX
	}
}

layer {
	bottom: "pool1"
	top: "res2a_branch1"
	name: "res2a_branch1"
	type: "Convolution"
  deletetop: true
	param {
		name: "res2a_branch1_0"
               lr_mult: ${MAIN_LR1}
               decay_mult: 1
        }
        convolution_param {
		num_output: 256
		kernel_size: 1
		pad: 0
		stride: 1
		bias_term: false
	}
}

layer {
	bottom: "res2a_branch1"
	top: "res2a_branch1"
	name: "bn2a_branch1"
	type: "BatchNorm"
	batch_norm_param {
		use_global_stats: true
	}
	param {
		name: "bn2a_branch1_0"
	      lr_mult: 0
	}
	param {
		name: "bn2a_branch1_1"
	      lr_mult: 0
        }
	param {
		name: "bn2a_branch1_2"
	      lr_mult: 0
        }
}

layer {
	bottom: "res2a_branch1"
	top: "res2a_branch1"
	name: "scale2a_branch1"
	type: "Scale"
	scale_param {
		bias_term: true
	}
	param {
		name: "scale2a_branch1_0"
	      lr_mult: 0
	}
	param {
		name: "scale2a_branch1_1"
	      lr_mult: 0
	}
}

layer {
	bottom: "pool1"
	top: "res2a_branch2a"
	name: "res2a_branch2a"
	type: "Convolution"
  deletetop: true
	param {
		name: "res2a_branch2a_0"
               lr_mult: ${MAIN_LR1}
               decay_mult: 1
        }
        convolution_param {
		num_output: 64
		kernel_size: 1
		pad: 0
		stride: 1
		bias_term: false
	}
}

layer {
	bottom: "res2a_branch2a"
	top: "res2a_branch2a"
	name: "bn2a_branch2a"
	type: "BatchNorm"
	batch_norm_param {
		use_global_stats: true
	}
	param {
		name: "bn2a_branch2a_0"
	      lr_mult: 0
	}
	param {
		name: "bn2a_branch2a_1"
	      lr_mult: 0
        }
	param {
		name: "bn2a_branch2a_2"
	      lr_mult: 0
        }
}

layer {
	bottom: "res2a_branch2a"
	top: "res2a_branch2a"
	name: "scale2a_branch2a"
	type: "Scale"
	scale_param {
		bias_term: true
	}
	param {
		name: "scale2a_branch2a_0"
	      lr_mult: 0
	}
	param {
		name: "scale2a_branch2a_1"
	      lr_mult: 0
	}
}

layer {
	top: "res2a_branch2a"
	bottom: "res2a_branch2a"
	name: "res2a_branch2a_relu"
	type: "ReLU"
}

layer {
	bottom: "res2a_branch2a"
	top: "res2a_branch2b"
	name: "res2a_branch2b"
	type: "Convolution"
  deletetop: true
	param {
		name: "res2a_branch2b_0"
               lr_mult: ${MAIN_LR1}
               decay_mult: 1
        }
        convolution_param {
		num_output: 64
		kernel_size: 3
		pad: 1
		stride: 1
		bias_term: false
	}
}

layer {
	bottom: "res2a_branch2b"
	top: "res2a_branch2b"
	name: "bn2a_branch2b"
	type: "BatchNorm"
	batch_norm_param {
		use_global_stats: true
	}
	param {
		name: "bn2a_branch2b_0"
	      lr_mult: 0
	}
	param {
		name: "bn2a_branch2b_1"
	      lr_mult: 0
        }
	param {
		name: "bn2a_branch2b_2"
	      lr_mult: 0
        }
}

layer {
	bottom: "res2a_branch2b"
	top: "res2a_branch2b"
	name: "scale2a_branch2b"
	type: "Scale"
	scale_param {
		bias_term: true
	}
	param {
		name: "scale2a_branch2b_0"
	      lr_mult: 0
	}
	param {
		name: "scale2a_branch2b_1"
	      lr_mult: 0
	}
}

layer {
	top: "res2a_branch2b"
	bottom: "res2a_branch2b"
	name: "res2a_branch2b_relu"
	type: "ReLU"
}

layer {
	bottom: "res2a_branch2b"
	top: "res2a_branch2c"
	name: "res2a_branch2c"
	type: "Convolution"
  deletetop: true
	param {
		name: "res2a_branch2c_0"
               lr_mult: ${MAIN_LR1}
               decay_mult: 1
        }
        convolution_param {
		num_output: 256
		kernel_size: 1
		pad: 0
		stride: 1
		bias_term: false
	}
}

layer {
	bottom: "res2a_branch2c"
	top: "res2a_branch2c"
	name: "bn2a_branch2c"
	type: "BatchNorm"
	batch_norm_param {
		use_global_stats: true
	}
	param {
		name: "bn2a_branch2c_0"
	      lr_mult: 0
	}
	param {
		name: "bn2a_branch2c_1"
	      lr_mult: 0
        }
	param {
		name: "bn2a_branch2c_2"
	      lr_mult: 0
        }
}

layer {
	bottom: "res2a_branch2c"
	top: "res2a_branch2c"
	name: "scale2a_branch2c"
	type: "Scale"
	scale_param {
		bias_term: true
	}
	param {
		name: "scale2a_branch2c_0"
	      lr_mult: 0
	}
	param {
		name: "scale2a_branch2c_1"
	      lr_mult: 0
	}
}

layer {
	bottom: "res2a_branch1"
	bottom: "res2a_branch2c"
	top: "res2a"
	name: "res2a"
	type: "Eltwise"
}

layer {
	bottom: "res2a"
	top: "res2a"
	name: "res2a_relu"
	type: "ReLU"
}

layer {
	bottom: "res2a"
	top: "res2b_branch2a"
	name: "res2b_branch2a"
	type: "Convolution"
  deletetop: true
	param {
		name: "res2b_branch2a_0"
               lr_mult: ${MAIN_LR1}
               decay_mult: 1
        }
        convolution_param {
		num_output: 64
		kernel_size: 1
		pad: 0
		stride: 1
		bias_term: false
	}
}

layer {
	bottom: "res2b_branch2a"
	top: "res2b_branch2a"
	name: "bn2b_branch2a"
	type: "BatchNorm"
	batch_norm_param {
		use_global_stats: true
	}
	param {
		name: "bn2b_branch2a_0"
	      lr_mult: 0
	}
	param {
		name: "bn2b_branch2a_1"
	      lr_mult: 0
        }
	param {
		name: "bn2b_branch2a_2"
	      lr_mult: 0
        }
}

layer {
	bottom: "res2b_branch2a"
	top: "res2b_branch2a"
	name: "scale2b_branch2a"
	type: "Scale"
	scale_param {
		bias_term: true
	}
	param {
		name: "scale2b_branch2a_0"
	      lr_mult: 0
	}
	param {
		name: "scale2b_branch2a_1"
	      lr_mult: 0
	}
}

layer {
	top: "res2b_branch2a"
	bottom: "res2b_branch2a"
	name: "res2b_branch2a_relu"
	type: "ReLU"
}

layer {
	bottom: "res2b_branch2a"
	top: "res2b_branch2b"
	name: "res2b_branch2b"
	type: "Convolution"
  deletetop: true
	param {
		name: "res2b_branch2b_0"
               lr_mult: ${MAIN_LR1}
               decay_mult: 1
        }
        convolution_param {
		num_output: 64
		kernel_size: 3
		pad: 1
		stride: 1
		bias_term: false
	}
}

layer {
	bottom: "res2b_branch2b"
	top: "res2b_branch2b"
	name: "bn2b_branch2b"
	type: "BatchNorm"
	batch_norm_param {
		use_global_stats: true
	}
	param {
		name: "bn2b_branch2b_0"
	      lr_mult: 0
	}
	param {
		name: "bn2b_branch2b_1"
	      lr_mult: 0
        }
	param {
		name: "bn2b_branch2b_2"
	      lr_mult: 0
        }
}

layer {
	bottom: "res2b_branch2b"
	top: "res2b_branch2b"
	name: "scale2b_branch2b"
	type: "Scale"
	scale_param {
		bias_term: true
	}
	param {
		name: "scale2b_branch2b_0"
	      lr_mult: 0
	}
	param {
		name: "scale2b_branch2b_1"
	      lr_mult: 0
	}
}

layer {
	top: "res2b_branch2b"
	bottom: "res2b_branch2b"
	name: "res2b_branch2b_relu"
	type: "ReLU"
}

layer {
	bottom: "res2b_branch2b"
	top: "res2b_branch2c"
	name: "res2b_branch2c"
	type: "Convolution"
  deletetop: true
	param {
		name: "res2b_branch2c_0"
               lr_mult: ${MAIN_LR1}
               decay_mult: 1
        }
        convolution_param {
		num_output: 256
		kernel_size: 1
		pad: 0
		stride: 1
		bias_term: false
	}
}

layer {
	bottom: "res2b_branch2c"
	top: "res2b_branch2c"
	name: "bn2b_branch2c"
	type: "BatchNorm"
	batch_norm_param {
		use_global_stats: true
	}
	param {
		name: "bn2b_branch2c_0"
	      lr_mult: 0
	}
	param {
		name: "bn2b_branch2c_1"
	      lr_mult: 0
        }
	param {
		name: "bn2b_branch2c_2"
	      lr_mult: 0
        }
}

layer {
	bottom: "res2b_branch2c"
	top: "res2b_branch2c"
	name: "scale2b_branch2c"
	type: "Scale"
	scale_param {
		bias_term: true
	}
	param {
		name: "scale2b_branch2c_0"
	      lr_mult: 0
	}
	param {
		name: "scale2b_branch2c_1"
	      lr_mult: 0
	}
}

layer {
	bottom: "res2a"
	bottom: "res2b_branch2c"
	top: "res2b"
	name: "res2b"
	type: "Eltwise"
}

layer {
	bottom: "res2b"
	top: "res2b"
	name: "res2b_relu"
	type: "ReLU"
}

layer {
	bottom: "res2b"
	top: "res2c_branch2a"
	name: "res2c_branch2a"
	type: "Convolution"
  deletetop: true
	param {
		name: "res2c_branch2a_0"
               lr_mult: ${MAIN_LR1}
               decay_mult: 1
        }
        convolution_param {
		num_output: 64
		kernel_size: 1
		pad: 0
		stride: 1
		bias_term: false
	}
}

layer {
	bottom: "res2c_branch2a"
	top: "res2c_branch2a"
	name: "bn2c_branch2a"
	type: "BatchNorm"
	batch_norm_param {
		use_global_stats: true
	}
	param {
		name: "bn2c_branch2a_0"
	      lr_mult: 0
	}
	param {
		name: "bn2c_branch2a_1"
	      lr_mult: 0
        }
	param {
		name: "bn2c_branch2a_2"
	      lr_mult: 0
        }
}

layer {
	bottom: "res2c_branch2a"
	top: "res2c_branch2a"
	name: "scale2c_branch2a"
	type: "Scale"
	scale_param {
		bias_term: true
	}
	param {
		name: "scale2c_branch2a_0"
	      lr_mult: 0
	}
	param {
		name: "scale2c_branch2a_1"
	      lr_mult: 0
	}
}

layer {
	top: "res2c_branch2a"
	bottom: "res2c_branch2a"
	name: "res2c_branch2a_relu"
	type: "ReLU"
}

layer {
	bottom: "res2c_branch2a"
	top: "res2c_branch2b"
	name: "res2c_branch2b"
	type: "Convolution"
  deletetop: true
	param {
		name: "res2c_branch2b_0"
               lr_mult: ${MAIN_LR1}
               decay_mult: 1
        }
        convolution_param {
		num_output: 64
		kernel_size: 3
		pad: 1
		stride: 1
		bias_term: false
	}
}

layer {
	bottom: "res2c_branch2b"
	top: "res2c_branch2b"
	name: "bn2c_branch2b"
	type: "BatchNorm"
	batch_norm_param {
		use_global_stats: true
	}
	param {
		name: "bn2c_branch2b_0"
	      lr_mult: 0
	}
	param {
		name: "bn2c_branch2b_1"
	      lr_mult: 0
        }
	param {
		name: "bn2c_branch2b_2"
	      lr_mult: 0
        }
}

layer {
	bottom: "res2c_branch2b"
	top: "res2c_branch2b"
	name: "scale2c_branch2b"
	type: "Scale"
	scale_param {
		bias_term: true
	}
	param {
		name: "scale2c_branch2b_0"
	      lr_mult: 0
	}
	param {
		name: "scale2c_branch2b_1"
	      lr_mult: 0
	}
}

layer {
	top: "res2c_branch2b"
	bottom: "res2c_branch2b"
	name: "res2c_branch2b_relu"
	type: "ReLU"
}

layer {
	bottom: "res2c_branch2b"
	top: "res2c_branch2c"
	name: "res2c_branch2c"
	type: "Convolution"
  deletetop: true
	param {
		name: "res2c_branch2c_0"
               lr_mult: ${MAIN_LR1}
               decay_mult: 1
        }
        convolution_param {
		num_output: 256
		kernel_size: 1
		pad: 0
		stride: 1
		bias_term: false
	}
}

layer {
	bottom: "res2c_branch2c"
	top: "res2c_branch2c"
	name: "bn2c_branch2c"
	type: "BatchNorm"
	batch_norm_param {
		use_global_stats: true
	}
	param {
		name: "bn2c_branch2c_0"
	      lr_mult: 0
	}
	param {
		name: "bn2c_branch2c_1"
	      lr_mult: 0
        }
	param {
		name: "bn2c_branch2c_2"
	      lr_mult: 0
        }
}

layer {
	bottom: "res2c_branch2c"
	top: "res2c_branch2c"
	name: "scale2c_branch2c"
	type: "Scale"
	scale_param {
		bias_term: true
	}
	param {
		name: "scale2c_branch2c_0"
	      lr_mult: 0
	}
	param {
		name: "scale2c_branch2c_1"
	      lr_mult: 0
	}
}

layer {
	bottom: "res2b"
	bottom: "res2c_branch2c"
	top: "res2c"
	name: "res2c"
	type: "Eltwise"
}

layer {
	bottom: "res2c"
	top: "res2c"
	name: "res2c_relu"
	type: "ReLU"
}

layer {
	bottom: "res2c"
	top: "res3a_branch1"
	name: "res3a_branch1"
	type: "Convolution"
  deletetop: true
	param {
		name: "res3a_branch1_0"
               lr_mult: ${MAIN_LR1}
               decay_mult: 1
        }
        convolution_param {
		num_output: 512
		kernel_size: 1
		pad: 0
		stride: 2
		bias_term: false
	}
}

layer {
	bottom: "res3a_branch1"
	top: "res3a_branch1"
	name: "bn3a_branch1"
	type: "BatchNorm"
	batch_norm_param {
		use_global_stats: true
	}
	param {
		name: "bn3a_branch1_0"
	      lr_mult: 0
	}
	param {
		name: "bn3a_branch1_1"
	      lr_mult: 0
        }
	param {
		name: "bn3a_branch1_2"
	      lr_mult: 0
        }
}

layer {
	bottom: "res3a_branch1"
	top: "res3a_branch1"
	name: "scale3a_branch1"
	type: "Scale"
	scale_param {
		bias_term: true
	}
	param {
		name: "scale3a_branch1_0"
	      lr_mult: 0
	}
	param {
		name: "scale3a_branch1_1"
	      lr_mult: 0
	}
}

layer {
	bottom: "res2c"
	top: "res3a_branch2a"
	name: "res3a_branch2a"
	type: "Convolution"
  deletetop: true
	param {
		name: "res3a_branch2a_0"
               lr_mult: ${MAIN_LR1}
               decay_mult: 1
        }
        convolution_param {
		num_output: 128
		kernel_size: 1
		pad: 0
		stride: 2
		bias_term: false
	}
}

layer {
	bottom: "res3a_branch2a"
	top: "res3a_branch2a"
	name: "bn3a_branch2a"
	type: "BatchNorm"
	batch_norm_param {
		use_global_stats: true
	}
	param {
		name: "bn3a_branch2a_0"
	      lr_mult: 0
	}
	param {
		name: "bn3a_branch2a_1"
	      lr_mult: 0
        }
	param {
		name: "bn3a_branch2a_2"
	      lr_mult: 0
        }
}

layer {
	bottom: "res3a_branch2a"
	top: "res3a_branch2a"
	name: "scale3a_branch2a"
	type: "Scale"
	scale_param {
		bias_term: true
	}
	param {
		name: "scale3a_branch2a_0"
	      lr_mult: 0
	}
	param {
		name: "scale3a_branch2a_1"
	      lr_mult: 0
	}
}

layer {
	top: "res3a_branch2a"
	bottom: "res3a_branch2a"
	name: "res3a_branch2a_relu"
	type: "ReLU"
}

layer {
	bottom: "res3a_branch2a"
	top: "res3a_branch2b"
	name: "res3a_branch2b"
	type: "Convolution"
  deletetop: true
	param {
		name: "res3a_branch2b_0"
               lr_mult: ${MAIN_LR1}
               decay_mult: 1
        }
        convolution_param {
		num_output: 128
		kernel_size: 3
		pad: 1
		stride: 1
		bias_term: false
	}
}

layer {
	bottom: "res3a_branch2b"
	top: "res3a_branch2b"
	name: "bn3a_branch2b"
	type: "BatchNorm"
	batch_norm_param {
		use_global_stats: true
	}
	param {
		name: "bn3a_branch2b_0"
	      lr_mult: 0
	}
	param {
		name: "bn3a_branch2b_1"
	      lr_mult: 0
        }
	param {
		name: "bn3a_branch2b_2"
	      lr_mult: 0
        }
}

layer {
	bottom: "res3a_branch2b"
	top: "res3a_branch2b"
	name: "scale3a_branch2b"
	type: "Scale"
	scale_param {
		bias_term: true
	}
	param {
		name: "scale3a_branch2b_0"
	      lr_mult: 0
	}
	param {
		name: "scale3a_branch2b_1"
	      lr_mult: 0
	}
}

layer {
	top: "res3a_branch2b"
	bottom: "res3a_branch2b"
	name: "res3a_branch2b_relu"
	type: "ReLU"
}

layer {
	bottom: "res3a_branch2b"
	top: "res3a_branch2c"
	name: "res3a_branch2c"
	type: "Convolution"
  deletetop: true
	param {
		name: "res3a_branch2c_0"
               lr_mult: ${MAIN_LR1}
               decay_mult: 1
        }
        convolution_param {
		num_output: 512
		kernel_size: 1
		pad: 0
		stride: 1
		bias_term: false
	}
}

layer {
	bottom: "res3a_branch2c"
	top: "res3a_branch2c"
	name: "bn3a_branch2c"
	type: "BatchNorm"
	batch_norm_param {
		use_global_stats: true
	}
	param {
		name: "bn3a_branch2c_0"
	      lr_mult: 0
	}
	param {
		name: "bn3a_branch2c_1"
	      lr_mult: 0
        }
	param {
		name: "bn3a_branch2c_2"
	      lr_mult: 0
        }
}

layer {
	bottom: "res3a_branch2c"
	top: "res3a_branch2c"
	name: "scale3a_branch2c"
	type: "Scale"
	scale_param {
		bias_term: true
	}
	param {
		name: "scale3a_branch2c_0"
	      lr_mult: 0
	}
	param {
		name: "scale3a_branch2c_1"
	      lr_mult: 0
	}
}

layer {
	bottom: "res3a_branch1"
	bottom: "res3a_branch2c"
	top: "res3a"
	name: "res3a"
	type: "Eltwise"
}

layer {
	bottom: "res3a"
	top: "res3a"
	name: "res3a_relu"
	type: "ReLU"
}

layer {
	bottom: "res3a"
	top: "res3b1_branch2a"
	name: "res3b1_branch2a"
	type: "Convolution"
  deletetop: true
	param {
		name: "res3b1_branch2a_0"
               lr_mult: ${MAIN_LR1}
               decay_mult: 1
        }
        convolution_param {
		num_output: 128
		kernel_size: 1
		pad: 0
		stride: 1
		bias_term: false
	}
}

layer {
	bottom: "res3b1_branch2a"
	top: "res3b1_branch2a"
	name: "bn3b1_branch2a"
	type: "BatchNorm"
	batch_norm_param {
		use_global_stats: true
	}
	param {
		name: "bn3b1_branch2a_0"
	      lr_mult: 0
	}
	param {
		name: "bn3b1_branch2a_1"
	      lr_mult: 0
        }
	param {
		name: "bn3b1_branch2a_2"
	      lr_mult: 0
        }
}

layer {
	bottom: "res3b1_branch2a"
	top: "res3b1_branch2a"
	name: "scale3b1_branch2a"
	type: "Scale"
	scale_param {
		bias_term: true
	}
	param {
		name: "scale3b1_branch2a_0"
	      lr_mult: 0
	}
	param {
		name: "scale3b1_branch2a_1"
	      lr_mult: 0
	}
}

layer {
	top: "res3b1_branch2a"
	bottom: "res3b1_branch2a"
	name: "res3b1_branch2a_relu"
	type: "ReLU"
}

layer {
	bottom: "res3b1_branch2a"
	top: "res3b1_branch2b"
	name: "res3b1_branch2b"
	type: "Convolution"
  deletetop: true
	param {
		name: "res3b1_branch2b_0"
               lr_mult: ${MAIN_LR1}
               decay_mult: 1
        }
        convolution_param {
		num_output: 128
		kernel_size: 3
		pad: 1
		stride: 1
		bias_term: false
	}
}

layer {
	bottom: "res3b1_branch2b"
	top: "res3b1_branch2b"
	name: "bn3b1_branch2b"
	type: "BatchNorm"
	batch_norm_param {
		use_global_stats: true
	}
	param {
		name: "bn3b1_branch2b_0"
	      lr_mult: 0
	}
	param {
		name: "bn3b1_branch2b_1"
	      lr_mult: 0
        }
	param {
		name: "bn3b1_branch2b_2"
	      lr_mult: 0
        }
}

layer {
	bottom: "res3b1_branch2b"
	top: "res3b1_branch2b"
	name: "scale3b1_branch2b"
	type: "Scale"
	scale_param {
		bias_term: true
	}
	param {
		name: "scale3b1_branch2b_0"
	      lr_mult: 0
	}
	param {
		name: "scale3b1_branch2b_1"
	      lr_mult: 0
	}
}

layer {
	top: "res3b1_branch2b"
	bottom: "res3b1_branch2b"
	name: "res3b1_branch2b_relu"
	type: "ReLU"
}

layer {
	bottom: "res3b1_branch2b"
	top: "res3b1_branch2c"
	name: "res3b1_branch2c"
	type: "Convolution"
  deletetop: true
	param {
		name: "res3b1_branch2c_0"
               lr_mult: ${MAIN_LR1}
               decay_mult: 1
        }
        convolution_param {
		num_output: 512
		kernel_size: 1
		pad: 0
		stride: 1
		bias_term: false
	}
}

layer {
	bottom: "res3b1_branch2c"
	top: "res3b1_branch2c"
	name: "bn3b1_branch2c"
	type: "BatchNorm"
	batch_norm_param {
		use_global_stats: true
	}
	param {
		name: "bn3b1_branch2c_0"
	      lr_mult: 0
	}
	param {
		name: "bn3b1_branch2c_1"
	      lr_mult: 0
        }
	param {
		name: "bn3b1_branch2c_2"
	      lr_mult: 0
        }
}

layer {
	bottom: "res3b1_branch2c"
	top: "res3b1_branch2c"
	name: "scale3b1_branch2c"
	type: "Scale"
	scale_param {
		bias_term: true
	}
	param {
		name: "scale3b1_branch2c_0"
	      lr_mult: 0
	}
	param {
		name: "scale3b1_branch2c_1"
	      lr_mult: 0
	}
}

layer {
	bottom: "res3a"
	bottom: "res3b1_branch2c"
	top: "res3b1"
	name: "res3b1"
	type: "Eltwise"
}

layer {
	bottom: "res3b1"
	top: "res3b1"
	name: "res3b1_relu"
	type: "ReLU"
}

layer {
	bottom: "res3b1"
	top: "res3b2_branch2a"
	name: "res3b2_branch2a"
	type: "Convolution"
  deletetop: true
	param {
		name: "res3b2_branch2a_0"
               lr_mult: ${MAIN_LR1}
               decay_mult: 1
        }
        convolution_param {
		num_output: 128
		kernel_size: 1
		pad: 0
		stride: 1
		bias_term: false
	}
}

layer {
	bottom: "res3b2_branch2a"
	top: "res3b2_branch2a"
	name: "bn3b2_branch2a"
	type: "BatchNorm"
	batch_norm_param {
		use_global_stats: true
	}
	param {
		name: "bn3b2_branch2a_0"
	      lr_mult: 0
	}
	param {
		name: "bn3b2_branch2a_1"
	      lr_mult: 0
        }
	param {
		name: "bn3b2_branch2a_2"
	      lr_mult: 0
        }
}

layer {
	bottom: "res3b2_branch2a"
	top: "res3b2_branch2a"
	name: "scale3b2_branch2a"
	type: "Scale"
	scale_param {
		bias_term: true
	}
	param {
		name: "scale3b2_branch2a_0"
	      lr_mult: 0
	}
	param {
		name: "scale3b2_branch2a_1"
	      lr_mult: 0
	}
}

layer {
	top: "res3b2_branch2a"
	bottom: "res3b2_branch2a"
	name: "res3b2_branch2a_relu"
	type: "ReLU"
}

layer {
	bottom: "res3b2_branch2a"
	top: "res3b2_branch2b"
	name: "res3b2_branch2b"
	type: "Convolution"
  deletetop: true
	param {
		name: "res3b2_branch2b_0"
               lr_mult: ${MAIN_LR1}
               decay_mult: 1
        }
        convolution_param {
		num_output: 128
		kernel_size: 3
		pad: 1
		stride: 1
		bias_term: false
	}
}

layer {
	bottom: "res3b2_branch2b"
	top: "res3b2_branch2b"
	name: "bn3b2_branch2b"
	type: "BatchNorm"
	batch_norm_param {
		use_global_stats: true
	}
	param {
		name: "bn3b2_branch2b_0"
	      lr_mult: 0
	}
	param {
		name: "bn3b2_branch2b_1"
	      lr_mult: 0
        }
	param {
		name: "bn3b2_branch2b_2"
	      lr_mult: 0
        }
}

layer {
	bottom: "res3b2_branch2b"
	top: "res3b2_branch2b"
	name: "scale3b2_branch2b"
	type: "Scale"
	scale_param {
		bias_term: true
	}
	param {
		name: "scale3b2_branch2b_0"
	      lr_mult: 0
	}
	param {
		name: "scale3b2_branch2b_1"
	      lr_mult: 0
	}
}

layer {
	top: "res3b2_branch2b"
	bottom: "res3b2_branch2b"
	name: "res3b2_branch2b_relu"
	type: "ReLU"
}

layer {
	bottom: "res3b2_branch2b"
	top: "res3b2_branch2c"
	name: "res3b2_branch2c"
	type: "Convolution"
  deletetop: true
	param {
		name: "res3b2_branch2c_0"
               lr_mult: ${MAIN_LR1}
               decay_mult: 1
        }
        convolution_param {
		num_output: 512
		kernel_size: 1
		pad: 0
		stride: 1
		bias_term: false
	}
}

layer {
	bottom: "res3b2_branch2c"
	top: "res3b2_branch2c"
	name: "bn3b2_branch2c"
	type: "BatchNorm"
	batch_norm_param {
		use_global_stats: true
	}
	param {
		name: "bn3b2_branch2c_0"
	      lr_mult: 0
	}
	param {
		name: "bn3b2_branch2c_1"
	      lr_mult: 0
        }
	param {
		name: "bn3b2_branch2c_2"
	      lr_mult: 0
        }
}

layer {
	bottom: "res3b2_branch2c"
	top: "res3b2_branch2c"
	name: "scale3b2_branch2c"
	type: "Scale"
	scale_param {
		bias_term: true
	}
	param {
		name: "scale3b2_branch2c_0"
	      lr_mult: 0
	}
	param {
		name: "scale3b2_branch2c_1"
	      lr_mult: 0
	}
}

layer {
	bottom: "res3b1"
	bottom: "res3b2_branch2c"
	top: "res3b2"
	name: "res3b2"
	type: "Eltwise"
}

layer {
	bottom: "res3b2"
	top: "res3b2"
	name: "res3b2_relu"
	type: "ReLU"
}

layer {
	bottom: "res3b2"
	top: "res3b3_branch2a"
	name: "res3b3_branch2a"
	type: "Convolution"
  deletetop: true
	param {
		name: "res3b3_branch2a_0"
               lr_mult: ${MAIN_LR1}
               decay_mult: 1
        }
        convolution_param {
		num_output: 128
		kernel_size: 1
		pad: 0
		stride: 1
		bias_term: false
	}
}

layer {
	bottom: "res3b3_branch2a"
	top: "res3b3_branch2a"
	name: "bn3b3_branch2a"
	type: "BatchNorm"
	batch_norm_param {
		use_global_stats: true
	}
	param {
		name: "bn3b3_branch2a_0"
	      lr_mult: 0
	}
	param {
		name: "bn3b3_branch2a_1"
	      lr_mult: 0
        }
	param {
		name: "bn3b3_branch2a_2"
	      lr_mult: 0
        }
}

layer {
	bottom: "res3b3_branch2a"
	top: "res3b3_branch2a"
	name: "scale3b3_branch2a"
	type: "Scale"
	scale_param {
		bias_term: true
	}
	param {
		name: "scale3b3_branch2a_0"
	      lr_mult: 0
	}
	param {
		name: "scale3b3_branch2a_1"
	      lr_mult: 0
	}
}

layer {
	top: "res3b3_branch2a"
	bottom: "res3b3_branch2a"
	name: "res3b3_branch2a_relu"
	type: "ReLU"
}

layer {
	bottom: "res3b3_branch2a"
	top: "res3b3_branch2b"
	name: "res3b3_branch2b"
	type: "Convolution"
  deletetop: true
	param {
		name: "res3b3_branch2b_0"
               lr_mult: ${MAIN_LR1}
               decay_mult: 1
        }
        convolution_param {
		num_output: 128
		kernel_size: 3
		pad: 1
		stride: 1
		bias_term: false
	}
}

layer {
	bottom: "res3b3_branch2b"
	top: "res3b3_branch2b"
	name: "bn3b3_branch2b"
	type: "BatchNorm"
	batch_norm_param {
		use_global_stats: true
	}
	param {
		name: "bn3b3_branch2b_0"
	      lr_mult: 0
	}
	param {
		name: "bn3b3_branch2b_1"
	      lr_mult: 0
        }
	param {
		name: "bn3b3_branch2b_2"
	      lr_mult: 0
        }
}

layer {
	bottom: "res3b3_branch2b"
	top: "res3b3_branch2b"
	name: "scale3b3_branch2b"
	type: "Scale"
	scale_param {
		bias_term: true
	}
	param {
		name: "scale3b3_branch2b_0"
	      lr_mult: 0
	}
	param {
		name: "scale3b3_branch2b_1"
	      lr_mult: 0
	}
}

layer {
	top: "res3b3_branch2b"
	bottom: "res3b3_branch2b"
	name: "res3b3_branch2b_relu"
	type: "ReLU"
}

layer {
	bottom: "res3b3_branch2b"
	top: "res3b3_branch2c"
	name: "res3b3_branch2c"
	type: "Convolution"
  deletetop: true
	param {
		name: "res3b3_branch2c_0"
               lr_mult: ${MAIN_LR1}
               decay_mult: 1
        }
        convolution_param {
		num_output: 512
		kernel_size: 1
		pad: 0
		stride: 1
		bias_term: false
	}
}

layer {
	bottom: "res3b3_branch2c"
	top: "res3b3_branch2c"
	name: "bn3b3_branch2c"
	type: "BatchNorm"
	batch_norm_param {
		use_global_stats: true
	}
	param {
		name: "bn3b3_branch2c_0"
	      lr_mult: 0
	}
	param {
		name: "bn3b3_branch2c_1"
	      lr_mult: 0
        }
	param {
		name: "bn3b3_branch2c_2"
	      lr_mult: 0
        }
}

layer {
	bottom: "res3b3_branch2c"
	top: "res3b3_branch2c"
	name: "scale3b3_branch2c"
	type: "Scale"
	scale_param {
		bias_term: true
	}
	param {
		name: "scale3b3_branch2c_0"
	      lr_mult: 0
	}
	param {
		name: "scale3b3_branch2c_1"
	      lr_mult: 0
	}
}

layer {
	bottom: "res3b2"
	bottom: "res3b3_branch2c"
	top: "res3b3"
	name: "res3b3"
	type: "Eltwise"
}

layer {
	bottom: "res3b3"
	top: "res3b3"
	name: "res3b3_relu"
	type: "ReLU"
}

layer {
	bottom: "res3b3"
	top: "res4a_branch1"
	name: "res4a_branch1"
	type: "Convolution"
  deletetop: true
	param {
		name: "res4a_branch1_0"
               lr_mult: ${MAIN_LR1}
               decay_mult: 1
        }
        convolution_param {
		num_output: 1024
		kernel_size: 1
		pad: 0
		stride: 1
		bias_term: false
	}
}

layer {
	bottom: "res4a_branch1"
	top: "res4a_branch1"
	name: "bn4a_branch1"
	type: "BatchNorm"
	batch_norm_param {
		use_global_stats: true
	}
	param {
		name: "bn4a_branch1_0"
	      lr_mult: 0
	}
	param {
		name: "bn4a_branch1_1"
	      lr_mult: 0
        }
	param {
		name: "bn4a_branch1_2"
	      lr_mult: 0
        }
}

layer {
	bottom: "res4a_branch1"
	top: "res4a_branch1"
	name: "scale4a_branch1"
	type: "Scale"
	scale_param {
		bias_term: true
	}
	param {
		name: "scale4a_branch1_0"
	      lr_mult: 0
	}
	param {
		name: "scale4a_branch1_1"
	      lr_mult: 0
	}
}

layer {
	bottom: "res3b3"
	top: "res4a_branch2a"
	name: "res4a_branch2a"
	type: "Convolution"
  deletetop: true
	param {
		name: "res4a_branch2a_0"
               lr_mult: ${MAIN_LR1}
               decay_mult: 1
        }
        convolution_param {
		num_output: 256
		kernel_size: 1
		pad: 0
		stride: 1
		bias_term: false
	}
}

layer {
	bottom: "res4a_branch2a"
	top: "res4a_branch2a"
	name: "bn4a_branch2a"
	type: "BatchNorm"
	batch_norm_param {
		use_global_stats: true
	}
	param {
		name: "bn4a_branch2a_0"
	      lr_mult: 0
	}
	param {
		name: "bn4a_branch2a_1"
	      lr_mult: 0
        }
	param {
		name: "bn4a_branch2a_2"
	      lr_mult: 0
        }
}

layer {
	bottom: "res4a_branch2a"
	top: "res4a_branch2a"
	name: "scale4a_branch2a"
	type: "Scale"
	scale_param {
		bias_term: true
	}
	param {
		name: "scale4a_branch2a_0"
	      lr_mult: 0
	}
	param {
		name: "scale4a_branch2a_1"
	      lr_mult: 0
	}
}

layer {
	top: "res4a_branch2a"
	bottom: "res4a_branch2a"
	name: "res4a_branch2a_relu"
	type: "ReLU"
}

layer {
	bottom: "res4a_branch2a"
	top: "res4a_branch2b"
	name: "res4a_branch2b"
	type: "Convolution"
  deletetop: true
	param {
		name: "res4a_branch2b_0"
               lr_mult: ${MAIN_LR1}
               decay_mult: 1
        }
        convolution_param {
		num_output: 256
		kernel_size: 3
		pad: 2
		dilation: 2
		stride: 1
		bias_term: false
	}
}

layer {
	bottom: "res4a_branch2b"
	top: "res4a_branch2b"
	name: "bn4a_branch2b"
	type: "BatchNorm"
	batch_norm_param {
		use_global_stats: true
	}
	param {
		name: "bn4a_branch2b_0"
	      lr_mult: 0
	}
	param {
		name: "bn4a_branch2b_1"
	      lr_mult: 0
        }
	param {
		name: "bn4a_branch2b_2"
	      lr_mult: 0
        }
}

layer {
	bottom: "res4a_branch2b"
	top: "res4a_branch2b"
	name: "scale4a_branch2b"
	type: "Scale"
	scale_param {
		bias_term: true
	}
	param {
		name: "scale4a_branch2b_0"
	      lr_mult: 0
	}
	param {
		name: "scale4a_branch2b_1"
	      lr_mult: 0
	}
}

layer {
	top: "res4a_branch2b"
	bottom: "res4a_branch2b"
	name: "res4a_branch2b_relu"
	type: "ReLU"
}

layer {
	bottom: "res4a_branch2b"
	top: "res4a_branch2c"
	name: "res4a_branch2c"
	type: "Convolution"
  deletetop: true
	param {
		name: "res4a_branch2c_0"
               lr_mult: ${MAIN_LR1}
               decay_mult: 1
        }
        convolution_param {
		num_output: 1024
		kernel_size: 1
		pad: 0
		stride: 1
		bias_term: false
	}
}

layer {
	bottom: "res4a_branch2c"
	top: "res4a_branch2c"
	name: "bn4a_branch2c"
	type: "BatchNorm"
	batch_norm_param {
		use_global_stats: true
	}
	param {
		name: "bn4a_branch2c_0"
	      lr_mult: 0
	}
	param {
		name: "bn4a_branch2c_1"
	      lr_mult: 0
        }
	param {
		name: "bn4a_branch2c_2"
	      lr_mult: 0
        }
}

layer {
	bottom: "res4a_branch2c"
	top: "res4a_branch2c"
	name: "scale4a_branch2c"
	type: "Scale"
	scale_param {
		bias_term: true
	}
	param {
		name: "scale4a_branch2c_0"
	      lr_mult: 0
	}
	param {
		name: "scale4a_branch2c_1"
	      lr_mult: 0
	}
}

layer {
	bottom: "res4a_branch1"
	bottom: "res4a_branch2c"
	top: "res4a"
	name: "res4a"
	type: "Eltwise"
}

layer {
	bottom: "res4a"
	top: "res4a"
	name: "res4a_relu"
	type: "ReLU"
}

layer {
	bottom: "res4a"
	top: "res4b1_branch2a"
	name: "res4b1_branch2a"
	type: "Convolution"
  deletetop: true
	param {
		name: "res4b1_branch2a_0"
               lr_mult: ${MAIN_LR1}
               decay_mult: 1
        }
        convolution_param {
		num_output: 256
		kernel_size: 1
		pad: 0
		stride: 1
		bias_term: false
	}
}

layer {
	bottom: "res4b1_branch2a"
	top: "res4b1_branch2a"
	name: "bn4b1_branch2a"
	type: "BatchNorm"
	batch_norm_param {
		use_global_stats: true
	}
	param {
		name: "bn4b1_branch2a_0"
	      lr_mult: 0
	}
	param {
		name: "bn4b1_branch2a_1"
	      lr_mult: 0
        }
	param {
		name: "bn4b1_branch2a_2"
	      lr_mult: 0
        }
}

layer {
	bottom: "res4b1_branch2a"
	top: "res4b1_branch2a"
	name: "scale4b1_branch2a"
	type: "Scale"
	scale_param {
		bias_term: true
	}
	param {
		name: "scale4b1_branch2a_0"
	      lr_mult: 0
	}
	param {
		name: "scale4b1_branch2a_1"
	      lr_mult: 0
	}
}

layer {
	top: "res4b1_branch2a"
	bottom: "res4b1_branch2a"
	name: "res4b1_branch2a_relu"
	type: "ReLU"
}

layer {
	bottom: "res4b1_branch2a"
	top: "res4b1_branch2b"
	name: "res4b1_branch2b"
	type: "Convolution"
  deletetop: true
	param {
		name: "res4b1_branch2b_0"
               lr_mult: ${MAIN_LR1}
               decay_mult: 1
        }
        convolution_param {
		num_output: 256
		kernel_size: 3
		pad: 2
		dilation: 2
		stride: 1
		bias_term: false
	}
}

layer {
	bottom: "res4b1_branch2b"
	top: "res4b1_branch2b"
	name: "bn4b1_branch2b"
	type: "BatchNorm"
	batch_norm_param {
		use_global_stats: true
	}
	param {
		name: "bn4b1_branch2b_0"
	      lr_mult: 0
	}
	param {
		name: "bn4b1_branch2b_1"
	      lr_mult: 0
        }
	param {
		name: "bn4b1_branch2b_2"
	      lr_mult: 0
        }
}

layer {
	bottom: "res4b1_branch2b"
	top: "res4b1_branch2b"
	name: "scale4b1_branch2b"
	type: "Scale"
	scale_param {
		bias_term: true
	}
	param {
		name: "scale4b1_branch2b_0"
	      lr_mult: 0
	}
	param {
		name: "scale4b1_branch2b_1"
	      lr_mult: 0
	}
}

layer {
	top: "res4b1_branch2b"
	bottom: "res4b1_branch2b"
	name: "res4b1_branch2b_relu"
	type: "ReLU"
}

layer {
	bottom: "res4b1_branch2b"
	top: "res4b1_branch2c"
	name: "res4b1_branch2c"
	type: "Convolution"
  deletetop: true
	param {
		name: "res4b1_branch2c_0"
               lr_mult: ${MAIN_LR1}
               decay_mult: 1
        }
        convolution_param {
		num_output: 1024
		kernel_size: 1
		pad: 0
		stride: 1
		bias_term: false
	}
}

layer {
	bottom: "res4b1_branch2c"
	top: "res4b1_branch2c"
	name: "bn4b1_branch2c"
	type: "BatchNorm"
	batch_norm_param {
		use_global_stats: true
	}
	param {
		name: "bn4b1_branch2c_0"
	      lr_mult: 0
	}
	param {
		name: "bn4b1_branch2c_1"
	      lr_mult: 0
        }
	param {
		name: "bn4b1_branch2c_2"
	      lr_mult: 0
        }
}

layer {
	bottom: "res4b1_branch2c"
	top: "res4b1_branch2c"
	name: "scale4b1_branch2c"
	type: "Scale"
	scale_param {
		bias_term: true
	}
	param {
		name: "scale4b1_branch2c_0"
	      lr_mult: 0
	}
	param {
		name: "scale4b1_branch2c_1"
	      lr_mult: 0
	}
}

layer {
	bottom: "res4a"
	bottom: "res4b1_branch2c"
	top: "res4b1"
	name: "res4b1"
	type: "Eltwise"
}

layer {
	bottom: "res4b1"
	top: "res4b1"
	name: "res4b1_relu"
	type: "ReLU"
}

layer {
	bottom: "res4b1"
	top: "res4b2_branch2a"
	name: "res4b2_branch2a"
	type: "Convolution"
  deletetop: true
	param {
		name: "res4b2_branch2a_0"
               lr_mult: ${MAIN_LR1}
               decay_mult: 1
        }
        convolution_param {
		num_output: 256
		kernel_size: 1
		pad: 0
		stride: 1
		bias_term: false
	}
}

layer {
	bottom: "res4b2_branch2a"
	top: "res4b2_branch2a"
	name: "bn4b2_branch2a"
	type: "BatchNorm"
	batch_norm_param {
		use_global_stats: true
	}
	param {
		name: "bn4b2_branch2a_0"
	      lr_mult: 0
	}
	param {
		name: "bn4b2_branch2a_1"
	      lr_mult: 0
        }
	param {
		name: "bn4b2_branch2a_2"
	      lr_mult: 0
        }
}

layer {
	bottom: "res4b2_branch2a"
	top: "res4b2_branch2a"
	name: "scale4b2_branch2a"
	type: "Scale"
	scale_param {
		bias_term: true
	}
	param {
		name: "scale4b2_branch2a_0"
	      lr_mult: 0
	}
	param {
		name: "scale4b2_branch2a_1"
	      lr_mult: 0
	}
}

layer {
	top: "res4b2_branch2a"
	bottom: "res4b2_branch2a"
	name: "res4b2_branch2a_relu"
	type: "ReLU"
}

layer {
	bottom: "res4b2_branch2a"
	top: "res4b2_branch2b"
	name: "res4b2_branch2b"
	type: "Convolution"
  deletetop: true
	param {
		name: "res4b2_branch2b_0"
               lr_mult: ${MAIN_LR1}
               decay_mult: 1
        }
        convolution_param {
		num_output: 256
		kernel_size: 3
		pad: 2
		dilation: 2
		stride: 1
		bias_term: false
	}
}

layer {
	bottom: "res4b2_branch2b"
	top: "res4b2_branch2b"
	name: "bn4b2_branch2b"
	type: "BatchNorm"
	batch_norm_param {
		use_global_stats: true
	}
	param {
		name: "bn4b2_branch2b_0"
	      lr_mult: 0
	}
	param {
		name: "bn4b2_branch2b_1"
	      lr_mult: 0
        }
	param {
		name: "bn4b2_branch2b_2"
	      lr_mult: 0
        }
}

layer {
	bottom: "res4b2_branch2b"
	top: "res4b2_branch2b"
	name: "scale4b2_branch2b"
	type: "Scale"
	scale_param {
		bias_term: true
	}
	param {
		name: "scale4b2_branch2b_0"
	      lr_mult: 0
	}
	param {
		name: "scale4b2_branch2b_1"
	      lr_mult: 0
	}
}

layer {
	top: "res4b2_branch2b"
	bottom: "res4b2_branch2b"
	name: "res4b2_branch2b_relu"
	type: "ReLU"
}

layer {
	bottom: "res4b2_branch2b"
	top: "res4b2_branch2c"
	name: "res4b2_branch2c"
	type: "Convolution"
  deletetop: true
	param {
		name: "res4b2_branch2c_0"
               lr_mult: ${MAIN_LR1}
               decay_mult: 1
        }
        convolution_param {
		num_output: 1024
		kernel_size: 1
		pad: 0
		stride: 1
		bias_term: false
	}
}

layer {
	bottom: "res4b2_branch2c"
	top: "res4b2_branch2c"
	name: "bn4b2_branch2c"
	type: "BatchNorm"
	batch_norm_param {
		use_global_stats: true
	}
	param {
		name: "bn4b2_branch2c_0"
	      lr_mult: 0
	}
	param {
		name: "bn4b2_branch2c_1"
	      lr_mult: 0
        }
	param {
		name: "bn4b2_branch2c_2"
	      lr_mult: 0
        }
}

layer {
	bottom: "res4b2_branch2c"
	top: "res4b2_branch2c"
	name: "scale4b2_branch2c"
	type: "Scale"
	scale_param {
		bias_term: true
	}
	param {
		name: "scale4b2_branch2c_0"
	      lr_mult: 0
	}
	param {
		name: "scale4b2_branch2c_1"
	      lr_mult: 0
	}
}

layer {
	bottom: "res4b1"
	bottom: "res4b2_branch2c"
	top: "res4b2"
	name: "res4b2"
	type: "Eltwise"
}

layer {
	bottom: "res4b2"
	top: "res4b2"
	name: "res4b2_relu"
	type: "ReLU"
}

layer {
	bottom: "res4b2"
	top: "res4b3_branch2a"
	name: "res4b3_branch2a"
	type: "Convolution"
  deletetop: true
	param {
		name: "res4b3_branch2a_0"
               lr_mult: ${MAIN_LR1}
               decay_mult: 1
        }
        convolution_param {
		num_output: 256
		kernel_size: 1
		pad: 0
		stride: 1
		bias_term: false
	}
}

layer {
	bottom: "res4b3_branch2a"
	top: "res4b3_branch2a"
	name: "bn4b3_branch2a"
	type: "BatchNorm"
	batch_norm_param {
		use_global_stats: true
	}
	param {
		name: "bn4b3_branch2a_0"
	      lr_mult: 0
	}
	param {
		name: "bn4b3_branch2a_1"
	      lr_mult: 0
        }
	param {
		name: "bn4b3_branch2a_2"
	      lr_mult: 0
        }
}

layer {
	bottom: "res4b3_branch2a"
	top: "res4b3_branch2a"
	name: "scale4b3_branch2a"
	type: "Scale"
	scale_param {
		bias_term: true
	}
	param {
		name: "scale4b3_branch2a_0"
	      lr_mult: 0
	}
	param {
		name: "scale4b3_branch2a_1"
	      lr_mult: 0
	}
}

layer {
	top: "res4b3_branch2a"
	bottom: "res4b3_branch2a"
	name: "res4b3_branch2a_relu"
	type: "ReLU"
}

layer {
	bottom: "res4b3_branch2a"
	top: "res4b3_branch2b"
	name: "res4b3_branch2b"
	type: "Convolution"
  deletetop: true
	param {
		name: "res4b3_branch2b_0"
               lr_mult: ${MAIN_LR1}
               decay_mult: 1
        }
        convolution_param {
		num_output: 256
		kernel_size: 3
		pad: 2
		dilation: 2
		stride: 1
		bias_term: false
	}
}

layer {
	bottom: "res4b3_branch2b"
	top: "res4b3_branch2b"
	name: "bn4b3_branch2b"
	type: "BatchNorm"
	batch_norm_param {
		use_global_stats: true
	}
	param {
		name: "bn4b3_branch2b_0"
	      lr_mult: 0
	}
	param {
		name: "bn4b3_branch2b_1"
	      lr_mult: 0
        }
	param {
		name: "bn4b3_branch2b_2"
	      lr_mult: 0
        }
}

layer {
	bottom: "res4b3_branch2b"
	top: "res4b3_branch2b"
	name: "scale4b3_branch2b"
	type: "Scale"
	scale_param {
		bias_term: true
	}
	param {
		name: "scale4b3_branch2b_0"
	      lr_mult: 0
	}
	param {
		name: "scale4b3_branch2b_1"
	      lr_mult: 0
	}
}

layer {
	top: "res4b3_branch2b"
	bottom: "res4b3_branch2b"
	name: "res4b3_branch2b_relu"
	type: "ReLU"
}

layer {
	bottom: "res4b3_branch2b"
	top: "res4b3_branch2c"
	name: "res4b3_branch2c"
	type: "Convolution"
  deletetop: true
	param {
		name: "res4b3_branch2c_0"
               lr_mult: ${MAIN_LR1}
               decay_mult: 1
        }
        convolution_param {
		num_output: 1024
		kernel_size: 1
		pad: 0
		stride: 1
		bias_term: false
	}
}

layer {
	bottom: "res4b3_branch2c"
	top: "res4b3_branch2c"
	name: "bn4b3_branch2c"
	type: "BatchNorm"
	batch_norm_param {
		use_global_stats: true
	}
	param {
		name: "bn4b3_branch2c_0"
	      lr_mult: 0
	}
	param {
		name: "bn4b3_branch2c_1"
	      lr_mult: 0
        }
	param {
		name: "bn4b3_branch2c_2"
	      lr_mult: 0
        }
}

layer {
	bottom: "res4b3_branch2c"
	top: "res4b3_branch2c"
	name: "scale4b3_branch2c"
	type: "Scale"
	scale_param {
		bias_term: true
	}
	param {
		name: "scale4b3_branch2c_0"
	      lr_mult: 0
	}
	param {
		name: "scale4b3_branch2c_1"
	      lr_mult: 0
	}
}

layer {
	bottom: "res4b2"
	bottom: "res4b3_branch2c"
	top: "res4b3"
	name: "res4b3"
	type: "Eltwise"
}

layer {
	bottom: "res4b3"
	top: "res4b3"
	name: "res4b3_relu"
	type: "ReLU"
}

layer {
	bottom: "res4b3"
	top: "res4b4_branch2a"
	name: "res4b4_branch2a"
	type: "Convolution"
  deletetop: true
	param {
		name: "res4b4_branch2a_0"
               lr_mult: ${MAIN_LR1}
               decay_mult: 1
        }
        convolution_param {
		num_output: 256
		kernel_size: 1
		pad: 0
		stride: 1
		bias_term: false
	}
}

layer {
	bottom: "res4b4_branch2a"
	top: "res4b4_branch2a"
	name: "bn4b4_branch2a"
	type: "BatchNorm"
	batch_norm_param {
		use_global_stats: true
	}
	param {
		name: "bn4b4_branch2a_0"
	      lr_mult: 0
	}
	param {
		name: "bn4b4_branch2a_1"
	      lr_mult: 0
        }
	param {
		name: "bn4b4_branch2a_2"
	      lr_mult: 0
        }
}

layer {
	bottom: "res4b4_branch2a"
	top: "res4b4_branch2a"
	name: "scale4b4_branch2a"
	type: "Scale"
	scale_param {
		bias_term: true
	}
	param {
		name: "scale4b4_branch2a_0"
	      lr_mult: 0
	}
	param {
		name: "scale4b4_branch2a_1"
	      lr_mult: 0
	}
}

layer {
	top: "res4b4_branch2a"
	bottom: "res4b4_branch2a"
	name: "res4b4_branch2a_relu"
	type: "ReLU"
}

layer {
	bottom: "res4b4_branch2a"
	top: "res4b4_branch2b"
	name: "res4b4_branch2b"
	type: "Convolution"
  deletetop: true
	param {
		name: "res4b4_branch2b_0"
               lr_mult: ${MAIN_LR1}
               decay_mult: 1
        }
        convolution_param {
		num_output: 256
		kernel_size: 3
		pad: 2
		dilation: 2
		stride: 1
		bias_term: false
	}
}

layer {
	bottom: "res4b4_branch2b"
	top: "res4b4_branch2b"
	name: "bn4b4_branch2b"
	type: "BatchNorm"
	batch_norm_param {
		use_global_stats: true
	}
	param {
		name: "bn4b4_branch2b_0"
	      lr_mult: 0
	}
	param {
		name: "bn4b4_branch2b_1"
	      lr_mult: 0
        }
	param {
		name: "bn4b4_branch2b_2"
	      lr_mult: 0
        }
}

layer {
	bottom: "res4b4_branch2b"
	top: "res4b4_branch2b"
	name: "scale4b4_branch2b"
	type: "Scale"
	scale_param {
		bias_term: true
	}
	param {
		name: "scale4b4_branch2b_0"
	      lr_mult: 0
	}
	param {
		name: "scale4b4_branch2b_1"
	      lr_mult: 0
	}
}

layer {
	top: "res4b4_branch2b"
	bottom: "res4b4_branch2b"
	name: "res4b4_branch2b_relu"
	type: "ReLU"
}

layer {
	bottom: "res4b4_branch2b"
	top: "res4b4_branch2c"
	name: "res4b4_branch2c"
	type: "Convolution"
  deletetop: true
	param {
		name: "res4b4_branch2c_0"
               lr_mult: ${MAIN_LR1}
               decay_mult: 1
        }
        convolution_param {
		num_output: 1024
		kernel_size: 1
		pad: 0
		stride: 1
		bias_term: false
	}
}

layer {
	bottom: "res4b4_branch2c"
	top: "res4b4_branch2c"
	name: "bn4b4_branch2c"
	type: "BatchNorm"
	batch_norm_param {
		use_global_stats: true
	}
	param {
		name: "bn4b4_branch2c_0"
	      lr_mult: 0
	}
	param {
		name: "bn4b4_branch2c_1"
	      lr_mult: 0
        }
	param {
		name: "bn4b4_branch2c_2"
	      lr_mult: 0
        }
}

layer {
	bottom: "res4b4_branch2c"
	top: "res4b4_branch2c"
	name: "scale4b4_branch2c"
	type: "Scale"
	scale_param {
		bias_term: true
	}
	param {
		name: "scale4b4_branch2c_0"
	      lr_mult: 0
	}
	param {
		name: "scale4b4_branch2c_1"
	      lr_mult: 0
	}
}

layer {
	bottom: "res4b3"
	bottom: "res4b4_branch2c"
	top: "res4b4"
	name: "res4b4"
	type: "Eltwise"
}

layer {
	bottom: "res4b4"
	top: "res4b4"
	name: "res4b4_relu"
	type: "ReLU"
}

layer {
	bottom: "res4b4"
	top: "res4b5_branch2a"
	name: "res4b5_branch2a"
	type: "Convolution"
  deletetop: true
	param {
		name: "res4b5_branch2a_0"
               lr_mult: ${MAIN_LR1}
               decay_mult: 1
        }
        convolution_param {
		num_output: 256
		kernel_size: 1
		pad: 0
		stride: 1
		bias_term: false
	}
}

layer {
	bottom: "res4b5_branch2a"
	top: "res4b5_branch2a"
	name: "bn4b5_branch2a"
	type: "BatchNorm"
	batch_norm_param {
		use_global_stats: true
	}
	param {
		name: "bn4b5_branch2a_0"
	      lr_mult: 0
	}
	param {
		name: "bn4b5_branch2a_1"
	      lr_mult: 0
        }
	param {
		name: "bn4b5_branch2a_2"
	      lr_mult: 0
        }
}

layer {
	bottom: "res4b5_branch2a"
	top: "res4b5_branch2a"
	name: "scale4b5_branch2a"
	type: "Scale"
	scale_param {
		bias_term: true
	}
	param {
		name: "scale4b5_branch2a_0"
	      lr_mult: 0
	}
	param {
		name: "scale4b5_branch2a_1"
	      lr_mult: 0
	}
}

layer {
	top: "res4b5_branch2a"
	bottom: "res4b5_branch2a"
	name: "res4b5_branch2a_relu"
	type: "ReLU"
}

layer {
	bottom: "res4b5_branch2a"
	top: "res4b5_branch2b"
	name: "res4b5_branch2b"
	type: "Convolution"
  deletetop: true
	param {
		name: "res4b5_branch2b_0"
               lr_mult: ${MAIN_LR1}
               decay_mult: 1
        }
        convolution_param {
		num_output: 256
		kernel_size: 3
		pad: 2
		dilation: 2
		stride: 1
		bias_term: false
	}
}

layer {
	bottom: "res4b5_branch2b"
	top: "res4b5_branch2b"
	name: "bn4b5_branch2b"
	type: "BatchNorm"
	batch_norm_param {
		use_global_stats: true
	}
	param {
		name: "bn4b5_branch2b_0"
	      lr_mult: 0
	}
	param {
		name: "bn4b5_branch2b_1"
	      lr_mult: 0
        }
	param {
		name: "bn4b5_branch2b_2"
	      lr_mult: 0
        }
}

layer {
	bottom: "res4b5_branch2b"
	top: "res4b5_branch2b"
	name: "scale4b5_branch2b"
	type: "Scale"
	scale_param {
		bias_term: true
	}
	param {
		name: "scale4b5_branch2b_0"
	      lr_mult: 0
	}
	param {
		name: "scale4b5_branch2b_1"
	      lr_mult: 0
	}
}

layer {
	top: "res4b5_branch2b"
	bottom: "res4b5_branch2b"
	name: "res4b5_branch2b_relu"
	type: "ReLU"
}

layer {
	bottom: "res4b5_branch2b"
	top: "res4b5_branch2c"
	name: "res4b5_branch2c"
	type: "Convolution"
  deletetop: true
	param {
		name: "res4b5_branch2c_0"
               lr_mult: ${MAIN_LR1}
               decay_mult: 1
        }
        convolution_param {
		num_output: 1024
		kernel_size: 1
		pad: 0
		stride: 1
		bias_term: false
	}
}

layer {
	bottom: "res4b5_branch2c"
	top: "res4b5_branch2c"
	name: "bn4b5_branch2c"
	type: "BatchNorm"
	batch_norm_param {
		use_global_stats: true
	}
	param {
		name: "bn4b5_branch2c_0"
	      lr_mult: 0
	}
	param {
		name: "bn4b5_branch2c_1"
	      lr_mult: 0
        }
	param {
		name: "bn4b5_branch2c_2"
	      lr_mult: 0
        }
}

layer {
	bottom: "res4b5_branch2c"
	top: "res4b5_branch2c"
	name: "scale4b5_branch2c"
	type: "Scale"
	scale_param {
		bias_term: true
	}
	param {
		name: "scale4b5_branch2c_0"
	      lr_mult: 0
	}
	param {
		name: "scale4b5_branch2c_1"
	      lr_mult: 0
	}
}

layer {
	bottom: "res4b4"
	bottom: "res4b5_branch2c"
	top: "res4b5"
	name: "res4b5"
	type: "Eltwise"
}

layer {
	bottom: "res4b5"
	top: "res4b5"
	name: "res4b5_relu"
	type: "ReLU"
}

layer {
	bottom: "res4b5"
	top: "res4b6_branch2a"
	name: "res4b6_branch2a"
	type: "Convolution"
  deletetop: true
	param {
		name: "res4b6_branch2a_0"
               lr_mult: ${MAIN_LR1}
               decay_mult: 1
        }
        convolution_param {
		num_output: 256
		kernel_size: 1
		pad: 0
		stride: 1
		bias_term: false
	}
}

layer {
	bottom: "res4b6_branch2a"
	top: "res4b6_branch2a"
	name: "bn4b6_branch2a"
	type: "BatchNorm"
	batch_norm_param {
		use_global_stats: true
	}
	param {
		name: "bn4b6_branch2a_0"
	      lr_mult: 0
	}
	param {
		name: "bn4b6_branch2a_1"
	      lr_mult: 0
        }
	param {
		name: "bn4b6_branch2a_2"
	      lr_mult: 0
        }
}

layer {
	bottom: "res4b6_branch2a"
	top: "res4b6_branch2a"
	name: "scale4b6_branch2a"
	type: "Scale"
	scale_param {
		bias_term: true
	}
	param {
		name: "scale4b6_branch2a_0"
	      lr_mult: 0
	}
	param {
		name: "scale4b6_branch2a_1"
	      lr_mult: 0
	}
}

layer {
	top: "res4b6_branch2a"
	bottom: "res4b6_branch2a"
	name: "res4b6_branch2a_relu"
	type: "ReLU"
}

layer {
	bottom: "res4b6_branch2a"
	top: "res4b6_branch2b"
	name: "res4b6_branch2b"
	type: "Convolution"
  deletetop: true
	param {
		name: "res4b6_branch2b_0"
               lr_mult: ${MAIN_LR1}
               decay_mult: 1
        }
        convolution_param {
		num_output: 256
		kernel_size: 3
		pad: 2
		dilation: 2
		stride: 1
		bias_term: false
	}
}

layer {
	bottom: "res4b6_branch2b"
	top: "res4b6_branch2b"
	name: "bn4b6_branch2b"
	type: "BatchNorm"
	batch_norm_param {
		use_global_stats: true
	}
	param {
		name: "bn4b6_branch2b_0"
	      lr_mult: 0
	}
	param {
		name: "bn4b6_branch2b_1"
	      lr_mult: 0
        }
	param {
		name: "bn4b6_branch2b_2"
	      lr_mult: 0
        }
}

layer {
	bottom: "res4b6_branch2b"
	top: "res4b6_branch2b"
	name: "scale4b6_branch2b"
	type: "Scale"
	scale_param {
		bias_term: true
	}
	param {
		name: "scale4b6_branch2b_0"
	      lr_mult: 0
	}
	param {
		name: "scale4b6_branch2b_1"
	      lr_mult: 0
	}
}

layer {
	top: "res4b6_branch2b"
	bottom: "res4b6_branch2b"
	name: "res4b6_branch2b_relu"
	type: "ReLU"
}

layer {
	bottom: "res4b6_branch2b"
	top: "res4b6_branch2c"
	name: "res4b6_branch2c"
	type: "Convolution"
  deletetop: true
	param {
		name: "res4b6_branch2c_0"
               lr_mult: ${MAIN_LR1}
               decay_mult: 1
        }
        convolution_param {
		num_output: 1024
		kernel_size: 1
		pad: 0
		stride: 1
		bias_term: false
	}
}

layer {
	bottom: "res4b6_branch2c"
	top: "res4b6_branch2c"
	name: "bn4b6_branch2c"
	type: "BatchNorm"
	batch_norm_param {
		use_global_stats: true
	}
	param {
		name: "bn4b6_branch2c_0"
	      lr_mult: 0
	}
	param {
		name: "bn4b6_branch2c_1"
	      lr_mult: 0
        }
	param {
		name: "bn4b6_branch2c_2"
	      lr_mult: 0
        }
}

layer {
	bottom: "res4b6_branch2c"
	top: "res4b6_branch2c"
	name: "scale4b6_branch2c"
	type: "Scale"
	scale_param {
		bias_term: true
	}
	param {
		name: "scale4b6_branch2c_0"
	      lr_mult: 0
	}
	param {
		name: "scale4b6_branch2c_1"
	      lr_mult: 0
	}
}

layer {
	bottom: "res4b5"
	bottom: "res4b6_branch2c"
	top: "res4b6"
	name: "res4b6"
	type: "Eltwise"
}

layer {
	bottom: "res4b6"
	top: "res4b6"
	name: "res4b6_relu"
	type: "ReLU"
}

layer {
	bottom: "res4b6"
	top: "res4b7_branch2a"
	name: "res4b7_branch2a"
	type: "Convolution"
  deletetop: true
	param {
		name: "res4b7_branch2a_0"
               lr_mult: ${MAIN_LR1}
               decay_mult: 1
        }
        convolution_param {
		num_output: 256
		kernel_size: 1
		pad: 0
		stride: 1
		bias_term: false
	}
}

layer {
	bottom: "res4b7_branch2a"
	top: "res4b7_branch2a"
	name: "bn4b7_branch2a"
	type: "BatchNorm"
	batch_norm_param {
		use_global_stats: true
	}
	param {
		name: "bn4b7_branch2a_0"
	      lr_mult: 0
	}
	param {
		name: "bn4b7_branch2a_1"
	      lr_mult: 0
        }
	param {
		name: "bn4b7_branch2a_2"
	      lr_mult: 0
        }
}

layer {
	bottom: "res4b7_branch2a"
	top: "res4b7_branch2a"
	name: "scale4b7_branch2a"
	type: "Scale"
	scale_param {
		bias_term: true
	}
	param {
		name: "scale4b7_branch2a_0"
	      lr_mult: 0
	}
	param {
		name: "scale4b7_branch2a_1"
	      lr_mult: 0
	}
}

layer {
	top: "res4b7_branch2a"
	bottom: "res4b7_branch2a"
	name: "res4b7_branch2a_relu"
	type: "ReLU"
}

layer {
	bottom: "res4b7_branch2a"
	top: "res4b7_branch2b"
	name: "res4b7_branch2b"
	type: "Convolution"
  deletetop: true
	param {
		name: "res4b7_branch2b_0"
               lr_mult: ${MAIN_LR1}
               decay_mult: 1
        }
        convolution_param {
		num_output: 256
		kernel_size: 3
		pad: 2
		dilation: 2
		stride: 1
		bias_term: false
	}
}

layer {
	bottom: "res4b7_branch2b"
	top: "res4b7_branch2b"
	name: "bn4b7_branch2b"
	type: "BatchNorm"
	batch_norm_param {
		use_global_stats: true
	}
	param {
		name: "bn4b7_branch2b_0"
	      lr_mult: 0
	}
	param {
		name: "bn4b7_branch2b_1"
	      lr_mult: 0
        }
	param {
		name: "bn4b7_branch2b_2"
	      lr_mult: 0
        }
}

layer {
	bottom: "res4b7_branch2b"
	top: "res4b7_branch2b"
	name: "scale4b7_branch2b"
	type: "Scale"
	scale_param {
		bias_term: true
	}
	param {
		name: "scale4b7_branch2b_0"
	      lr_mult: 0
	}
	param {
		name: "scale4b7_branch2b_1"
	      lr_mult: 0
	}
}

layer {
	top: "res4b7_branch2b"
	bottom: "res4b7_branch2b"
	name: "res4b7_branch2b_relu"
	type: "ReLU"
}

layer {
	bottom: "res4b7_branch2b"
	top: "res4b7_branch2c"
	name: "res4b7_branch2c"
	type: "Convolution"
  deletetop: true
	param {
		name: "res4b7_branch2c_0"
               lr_mult: ${MAIN_LR1}
               decay_mult: 1
        }
        convolution_param {
		num_output: 1024
		kernel_size: 1
		pad: 0
		stride: 1
		bias_term: false
	}
}

layer {
	bottom: "res4b7_branch2c"
	top: "res4b7_branch2c"
	name: "bn4b7_branch2c"
	type: "BatchNorm"
	batch_norm_param {
		use_global_stats: true
	}
	param {
		name: "bn4b7_branch2c_0"
	      lr_mult: 0
	}
	param {
		name: "bn4b7_branch2c_1"
	      lr_mult: 0
        }
	param {
		name: "bn4b7_branch2c_2"
	      lr_mult: 0
        }
}

layer {
	bottom: "res4b7_branch2c"
	top: "res4b7_branch2c"
	name: "scale4b7_branch2c"
	type: "Scale"
	scale_param {
		bias_term: true
	}
	param {
		name: "scale4b7_branch2c_0"
	      lr_mult: 0
	}
	param {
		name: "scale4b7_branch2c_1"
	      lr_mult: 0
	}
}

layer {
	bottom: "res4b6"
	bottom: "res4b7_branch2c"
	top: "res4b7"
	name: "res4b7"
	type: "Eltwise"
}

layer {
	bottom: "res4b7"
	top: "res4b7"
	name: "res4b7_relu"
	type: "ReLU"
}

layer {
	bottom: "res4b7"
	top: "res4b8_branch2a"
	name: "res4b8_branch2a"
	type: "Convolution"
  deletetop: true
	param {
		name: "res4b8_branch2a_0"
               lr_mult: ${MAIN_LR1}
               decay_mult: 1
        }
        convolution_param {
		num_output: 256
		kernel_size: 1
		pad: 0
		stride: 1
		bias_term: false
	}
}

layer {
	bottom: "res4b8_branch2a"
	top: "res4b8_branch2a"
	name: "bn4b8_branch2a"
	type: "BatchNorm"
	batch_norm_param {
		use_global_stats: true
	}
	param {
		name: "bn4b8_branch2a_0"
	      lr_mult: 0
	}
	param {
		name: "bn4b8_branch2a_1"
	      lr_mult: 0
        }
	param {
		name: "bn4b8_branch2a_2"
	      lr_mult: 0
        }
}

layer {
	bottom: "res4b8_branch2a"
	top: "res4b8_branch2a"
	name: "scale4b8_branch2a"
	type: "Scale"
	scale_param {
		bias_term: true
	}
	param {
		name: "scale4b8_branch2a_0"
	      lr_mult: 0
	}
	param {
		name: "scale4b8_branch2a_1"
	      lr_mult: 0
	}
}

layer {
	top: "res4b8_branch2a"
	bottom: "res4b8_branch2a"
	name: "res4b8_branch2a_relu"
	type: "ReLU"
}

layer {
	bottom: "res4b8_branch2a"
	top: "res4b8_branch2b"
	name: "res4b8_branch2b"
	type: "Convolution"
  deletetop: true
	param {
		name: "res4b8_branch2b_0"
               lr_mult: ${MAIN_LR1}
               decay_mult: 1
        }
        convolution_param {
		num_output: 256
		kernel_size: 3
		pad: 2
		dilation: 2
		stride: 1
		bias_term: false
	}
}

layer {
	bottom: "res4b8_branch2b"
	top: "res4b8_branch2b"
	name: "bn4b8_branch2b"
	type: "BatchNorm"
	batch_norm_param {
		use_global_stats: true
	}
	param {
		name: "bn4b8_branch2b_0"
	      lr_mult: 0
	}
	param {
		name: "bn4b8_branch2b_1"
	      lr_mult: 0
        }
	param {
		name: "bn4b8_branch2b_2"
	      lr_mult: 0
        }
}

layer {
	bottom: "res4b8_branch2b"
	top: "res4b8_branch2b"
	name: "scale4b8_branch2b"
	type: "Scale"
	scale_param {
		bias_term: true
	}
	param {
		name: "scale4b8_branch2b_0"
	      lr_mult: 0
	}
	param {
		name: "scale4b8_branch2b_1"
	      lr_mult: 0
	}
}

layer {
	top: "res4b8_branch2b"
	bottom: "res4b8_branch2b"
	name: "res4b8_branch2b_relu"
	type: "ReLU"
}

layer {
	bottom: "res4b8_branch2b"
	top: "res4b8_branch2c"
	name: "res4b8_branch2c"
	type: "Convolution"
  deletetop: true
	param {
		name: "res4b8_branch2c_0"
               lr_mult: ${MAIN_LR1}
               decay_mult: 1
        }
        convolution_param {
		num_output: 1024
		kernel_size: 1
		pad: 0
		stride: 1
		bias_term: false
	}
}

layer {
	bottom: "res4b8_branch2c"
	top: "res4b8_branch2c"
	name: "bn4b8_branch2c"
	type: "BatchNorm"
	batch_norm_param {
		use_global_stats: true
	}
	param {
		name: "bn4b8_branch2c_0"
	      lr_mult: 0
	}
	param {
		name: "bn4b8_branch2c_1"
	      lr_mult: 0
        }
	param {
		name: "bn4b8_branch2c_2"
	      lr_mult: 0
        }
}

layer {
	bottom: "res4b8_branch2c"
	top: "res4b8_branch2c"
	name: "scale4b8_branch2c"
	type: "Scale"
	scale_param {
		bias_term: true
	}
	param {
		name: "scale4b8_branch2c_0"
	      lr_mult: 0
	}
	param {
		name: "scale4b8_branch2c_1"
	      lr_mult: 0
	}
}

layer {
	bottom: "res4b7"
	bottom: "res4b8_branch2c"
	top: "res4b8"
	name: "res4b8"
	type: "Eltwise"
}

layer {
	bottom: "res4b8"
	top: "res4b8"
	name: "res4b8_relu"
	type: "ReLU"
}

layer {
	bottom: "res4b8"
	top: "res4b9_branch2a"
	name: "res4b9_branch2a"
	type: "Convolution"
  deletetop: true
	param {
		name: "res4b9_branch2a_0"
               lr_mult: ${MAIN_LR1}
               decay_mult: 1
        }
        convolution_param {
		num_output: 256
		kernel_size: 1
		pad: 0
		stride: 1
		bias_term: false
	}
}

layer {
	bottom: "res4b9_branch2a"
	top: "res4b9_branch2a"
	name: "bn4b9_branch2a"
	type: "BatchNorm"
	batch_norm_param {
		use_global_stats: true
	}
	param {
		name: "bn4b9_branch2a_0"
	      lr_mult: 0
	}
	param {
		name: "bn4b9_branch2a_1"
	      lr_mult: 0
        }
	param {
		name: "bn4b9_branch2a_2"
	      lr_mult: 0
        }
}

layer {
	bottom: "res4b9_branch2a"
	top: "res4b9_branch2a"
	name: "scale4b9_branch2a"
	type: "Scale"
	scale_param {
		bias_term: true
	}
	param {
		name: "scale4b9_branch2a_0"
	      lr_mult: 0
	}
	param {
		name: "scale4b9_branch2a_1"
	      lr_mult: 0
	}
}

layer {
	top: "res4b9_branch2a"
	bottom: "res4b9_branch2a"
	name: "res4b9_branch2a_relu"
	type: "ReLU"
}

layer {
	bottom: "res4b9_branch2a"
	top: "res4b9_branch2b"
	name: "res4b9_branch2b"
	type: "Convolution"
  deletetop: true
	param {
		name: "res4b9_branch2b_0"
               lr_mult: ${MAIN_LR1}
               decay_mult: 1
        }
        convolution_param {
		num_output: 256
		kernel_size: 3
		pad: 2
		dilation: 2
		stride: 1
		bias_term: false
	}
}

layer {
	bottom: "res4b9_branch2b"
	top: "res4b9_branch2b"
	name: "bn4b9_branch2b"
	type: "BatchNorm"
	batch_norm_param {
		use_global_stats: true
	}
	param {
		name: "bn4b9_branch2b_0"
	      lr_mult: 0
	}
	param {
		name: "bn4b9_branch2b_1"
	      lr_mult: 0
        }
	param {
		name: "bn4b9_branch2b_2"
	      lr_mult: 0
        }
}

layer {
	bottom: "res4b9_branch2b"
	top: "res4b9_branch2b"
	name: "scale4b9_branch2b"
	type: "Scale"
	scale_param {
		bias_term: true
	}
	param {
		name: "scale4b9_branch2b_0"
	      lr_mult: 0
	}
	param {
		name: "scale4b9_branch2b_1"
	      lr_mult: 0
	}
}

layer {
	top: "res4b9_branch2b"
	bottom: "res4b9_branch2b"
	name: "res4b9_branch2b_relu"
	type: "ReLU"
}

layer {
	bottom: "res4b9_branch2b"
	top: "res4b9_branch2c"
	name: "res4b9_branch2c"
	type: "Convolution"
  deletetop: true
	param {
		name: "res4b9_branch2c_0"
               lr_mult: ${MAIN_LR1}
               decay_mult: 1
        }
        convolution_param {
		num_output: 1024
		kernel_size: 1
		pad: 0
		stride: 1
		bias_term: false
	}
}

layer {
	bottom: "res4b9_branch2c"
	top: "res4b9_branch2c"
	name: "bn4b9_branch2c"
	type: "BatchNorm"
	batch_norm_param {
		use_global_stats: true
	}
	param {
		name: "bn4b9_branch2c_0"
	      lr_mult: 0
	}
	param {
		name: "bn4b9_branch2c_1"
	      lr_mult: 0
        }
	param {
		name: "bn4b9_branch2c_2"
	      lr_mult: 0
        }
}

layer {
	bottom: "res4b9_branch2c"
	top: "res4b9_branch2c"
	name: "scale4b9_branch2c"
	type: "Scale"
	scale_param {
		bias_term: true
	}
	param {
		name: "scale4b9_branch2c_0"
	      lr_mult: 0
	}
	param {
		name: "scale4b9_branch2c_1"
	      lr_mult: 0
	}
}

layer {
	bottom: "res4b8"
	bottom: "res4b9_branch2c"
	top: "res4b9"
	name: "res4b9"
	type: "Eltwise"
}

layer {
	bottom: "res4b9"
	top: "res4b9"
	name: "res4b9_relu"
	type: "ReLU"
}

layer {
	bottom: "res4b9"
	top: "res4b10_branch2a"
	name: "res4b10_branch2a"
	type: "Convolution"
  deletetop: true
	param {
		name: "res4b10_branch2a_0"
               lr_mult: ${MAIN_LR1}
               decay_mult: 1
        }
        convolution_param {
		num_output: 256
		kernel_size: 1
		pad: 0
		stride: 1
		bias_term: false
	}
}

layer {
	bottom: "res4b10_branch2a"
	top: "res4b10_branch2a"
	name: "bn4b10_branch2a"
	type: "BatchNorm"
	batch_norm_param {
		use_global_stats: true
	}
	param {
		name: "bn4b10_branch2a_0"
	      lr_mult: 0
	}
	param {
		name: "bn4b10_branch2a_1"
	      lr_mult: 0
        }
	param {
		name: "bn4b10_branch2a_2"
	      lr_mult: 0
        }
}

layer {
	bottom: "res4b10_branch2a"
	top: "res4b10_branch2a"
	name: "scale4b10_branch2a"
	type: "Scale"
	scale_param {
		bias_term: true
	}
	param {
		name: "scale4b10_branch2a_0"
	      lr_mult: 0
	}
	param {
		name: "scale4b10_branch2a_1"
	      lr_mult: 0
	}
}

layer {
	top: "res4b10_branch2a"
	bottom: "res4b10_branch2a"
	name: "res4b10_branch2a_relu"
	type: "ReLU"
}

layer {
	bottom: "res4b10_branch2a"
	top: "res4b10_branch2b"
	name: "res4b10_branch2b"
	type: "Convolution"
  deletetop: true
	param {
		name: "res4b10_branch2b_0"
               lr_mult: ${MAIN_LR1}
               decay_mult: 1
        }
        convolution_param {
		num_output: 256
		kernel_size: 3
		pad: 2
		dilation: 2
		stride: 1
		bias_term: false
	}
}

layer {
	bottom: "res4b10_branch2b"
	top: "res4b10_branch2b"
	name: "bn4b10_branch2b"
	type: "BatchNorm"
	batch_norm_param {
		use_global_stats: true
	}
	param {
		name: "bn4b10_branch2b_0"
	      lr_mult: 0
	}
	param {
		name: "bn4b10_branch2b_1"
	      lr_mult: 0
        }
	param {
		name: "bn4b10_branch2b_2"
	      lr_mult: 0
        }
}

layer {
	bottom: "res4b10_branch2b"
	top: "res4b10_branch2b"
	name: "scale4b10_branch2b"
	type: "Scale"
	scale_param {
		bias_term: true
	}
	param {
		name: "scale4b10_branch2b_0"
	      lr_mult: 0
	}
	param {
		name: "scale4b10_branch2b_1"
	      lr_mult: 0
	}
}

layer {
	top: "res4b10_branch2b"
	bottom: "res4b10_branch2b"
	name: "res4b10_branch2b_relu"
	type: "ReLU"
}

layer {
	bottom: "res4b10_branch2b"
	top: "res4b10_branch2c"
	name: "res4b10_branch2c"
	type: "Convolution"
  deletetop: true
	param {
		name: "res4b10_branch2c_0"
               lr_mult: ${MAIN_LR1}
               decay_mult: 1
        }
        convolution_param {
		num_output: 1024
		kernel_size: 1
		pad: 0
		stride: 1
		bias_term: false
	}
}

layer {
	bottom: "res4b10_branch2c"
	top: "res4b10_branch2c"
	name: "bn4b10_branch2c"
	type: "BatchNorm"
	batch_norm_param {
		use_global_stats: true
	}
	param {
		name: "bn4b10_branch2c_0"
	      lr_mult: 0
	}
	param {
		name: "bn4b10_branch2c_1"
	      lr_mult: 0
        }
	param {
		name: "bn4b10_branch2c_2"
	      lr_mult: 0
        }
}

layer {
	bottom: "res4b10_branch2c"
	top: "res4b10_branch2c"
	name: "scale4b10_branch2c"
	type: "Scale"
	scale_param {
		bias_term: true
	}
	param {
		name: "scale4b10_branch2c_0"
	      lr_mult: 0
	}
	param {
		name: "scale4b10_branch2c_1"
	      lr_mult: 0
	}
}

layer {
	bottom: "res4b9"
	bottom: "res4b10_branch2c"
	top: "res4b10"
	name: "res4b10"
	type: "Eltwise"
}

layer {
	bottom: "res4b10"
	top: "res4b10"
	name: "res4b10_relu"
	type: "ReLU"
}

layer {
	bottom: "res4b10"
	top: "res4b11_branch2a"
	name: "res4b11_branch2a"
	type: "Convolution"
  deletetop: true
	param {
		name: "res4b11_branch2a_0"
               lr_mult: ${MAIN_LR1}
               decay_mult: 1
        }
        convolution_param {
		num_output: 256
		kernel_size: 1
		pad: 0
		stride: 1
		bias_term: false
	}
}

layer {
	bottom: "res4b11_branch2a"
	top: "res4b11_branch2a"
	name: "bn4b11_branch2a"
	type: "BatchNorm"
	batch_norm_param {
		use_global_stats: true
	}
	param {
		name: "bn4b11_branch2a_0"
	      lr_mult: 0
	}
	param {
		name: "bn4b11_branch2a_1"
	      lr_mult: 0
        }
	param {
		name: "bn4b11_branch2a_2"
	      lr_mult: 0
        }
}

layer {
	bottom: "res4b11_branch2a"
	top: "res4b11_branch2a"
	name: "scale4b11_branch2a"
	type: "Scale"
	scale_param {
		bias_term: true
	}
	param {
		name: "scale4b11_branch2a_0"
	      lr_mult: 0
	}
	param {
		name: "scale4b11_branch2a_1"
	      lr_mult: 0
	}
}

layer {
	top: "res4b11_branch2a"
	bottom: "res4b11_branch2a"
	name: "res4b11_branch2a_relu"
	type: "ReLU"
}

layer {
	bottom: "res4b11_branch2a"
	top: "res4b11_branch2b"
	name: "res4b11_branch2b"
	type: "Convolution"
  deletetop: true
	param {
		name: "res4b11_branch2b_0"
               lr_mult: ${MAIN_LR1}
               decay_mult: 1
        }
        convolution_param {
		num_output: 256
		kernel_size: 3
		pad: 2
		dilation: 2
		stride: 1
		bias_term: false
	}
}

layer {
	bottom: "res4b11_branch2b"
	top: "res4b11_branch2b"
	name: "bn4b11_branch2b"
	type: "BatchNorm"
	batch_norm_param {
		use_global_stats: true
	}
	param {
		name: "bn4b11_branch2b_0"
	      lr_mult: 0
	}
	param {
		name: "bn4b11_branch2b_1"
	      lr_mult: 0
        }
	param {
		name: "bn4b11_branch2b_2"
	      lr_mult: 0
        }
}

layer {
	bottom: "res4b11_branch2b"
	top: "res4b11_branch2b"
	name: "scale4b11_branch2b"
	type: "Scale"
	scale_param {
		bias_term: true
	}
	param {
		name: "scale4b11_branch2b_0"
	      lr_mult: 0
	}
	param {
		name: "scale4b11_branch2b_1"
	      lr_mult: 0
	}
}

layer {
	top: "res4b11_branch2b"
	bottom: "res4b11_branch2b"
	name: "res4b11_branch2b_relu"
	type: "ReLU"
}

layer {
	bottom: "res4b11_branch2b"
	top: "res4b11_branch2c"
	name: "res4b11_branch2c"
	type: "Convolution"
  deletetop: true
	param {
		name: "res4b11_branch2c_0"
               lr_mult: ${MAIN_LR1}
               decay_mult: 1
        }
        convolution_param {
		num_output: 1024
		kernel_size: 1
		pad: 0
		stride: 1
		bias_term: false
	}
}

layer {
	bottom: "res4b11_branch2c"
	top: "res4b11_branch2c"
	name: "bn4b11_branch2c"
	type: "BatchNorm"
	batch_norm_param {
		use_global_stats: true
	}
	param {
		name: "bn4b11_branch2c_0"
	      lr_mult: 0
	}
	param {
		name: "bn4b11_branch2c_1"
	      lr_mult: 0
        }
	param {
		name: "bn4b11_branch2c_2"
	      lr_mult: 0
        }
}

layer {
	bottom: "res4b11_branch2c"
	top: "res4b11_branch2c"
	name: "scale4b11_branch2c"
	type: "Scale"
	scale_param {
		bias_term: true
	}
	param {
		name: "scale4b11_branch2c_0"
	      lr_mult: 0
	}
	param {
		name: "scale4b11_branch2c_1"
	      lr_mult: 0
	}
}

layer {
	bottom: "res4b10"
	bottom: "res4b11_branch2c"
	top: "res4b11"
	name: "res4b11"
	type: "Eltwise"
}

layer {
	bottom: "res4b11"
	top: "res4b11"
	name: "res4b11_relu"
	type: "ReLU"
}

layer {
	bottom: "res4b11"
	top: "res4b12_branch2a"
	name: "res4b12_branch2a"
	type: "Convolution"
  deletetop: true
	param {
		name: "res4b12_branch2a_0"
               lr_mult: ${MAIN_LR1}
               decay_mult: 1
        }
        convolution_param {
		num_output: 256
		kernel_size: 1
		pad: 0
		stride: 1
		bias_term: false
	}
}

layer {
	bottom: "res4b12_branch2a"
	top: "res4b12_branch2a"
	name: "bn4b12_branch2a"
	type: "BatchNorm"
	batch_norm_param {
		use_global_stats: true
	}
	param {
		name: "bn4b12_branch2a_0"
	      lr_mult: 0
	}
	param {
		name: "bn4b12_branch2a_1"
	      lr_mult: 0
        }
	param {
		name: "bn4b12_branch2a_2"
	      lr_mult: 0
        }
}

layer {
	bottom: "res4b12_branch2a"
	top: "res4b12_branch2a"
	name: "scale4b12_branch2a"
	type: "Scale"
	scale_param {
		bias_term: true
	}
	param {
		name: "scale4b12_branch2a_0"
	      lr_mult: 0
	}
	param {
		name: "scale4b12_branch2a_1"
	      lr_mult: 0
	}
}

layer {
	top: "res4b12_branch2a"
	bottom: "res4b12_branch2a"
	name: "res4b12_branch2a_relu"
	type: "ReLU"
}

layer {
	bottom: "res4b12_branch2a"
	top: "res4b12_branch2b"
	name: "res4b12_branch2b"
	type: "Convolution"
  deletetop: true
	param {
		name: "res4b12_branch2b_0"
               lr_mult: ${MAIN_LR1}
               decay_mult: 1
        }
        convolution_param {
		num_output: 256
		kernel_size: 3
		pad: 2
		dilation: 2
		stride: 1
		bias_term: false
	}
}

layer {
	bottom: "res4b12_branch2b"
	top: "res4b12_branch2b"
	name: "bn4b12_branch2b"
	type: "BatchNorm"
	batch_norm_param {
		use_global_stats: true
	}
	param {
		name: "bn4b12_branch2b_0"
	      lr_mult: 0
	}
	param {
		name: "bn4b12_branch2b_1"
	      lr_mult: 0
        }
	param {
		name: "bn4b12_branch2b_2"
	      lr_mult: 0
        }
}

layer {
	bottom: "res4b12_branch2b"
	top: "res4b12_branch2b"
	name: "scale4b12_branch2b"
	type: "Scale"
	scale_param {
		bias_term: true
	}
	param {
		name: "scale4b12_branch2b_0"
	      lr_mult: 0
	}
	param {
		name: "scale4b12_branch2b_1"
	      lr_mult: 0
	}
}

layer {
	top: "res4b12_branch2b"
	bottom: "res4b12_branch2b"
	name: "res4b12_branch2b_relu"
	type: "ReLU"
}

layer {
	bottom: "res4b12_branch2b"
	top: "res4b12_branch2c"
	name: "res4b12_branch2c"
	type: "Convolution"
  deletetop: true
	param {
		name: "res4b12_branch2c_0"
               lr_mult: ${MAIN_LR1}
               decay_mult: 1
        }
        convolution_param {
		num_output: 1024
		kernel_size: 1
		pad: 0
		stride: 1
		bias_term: false
	}
}

layer {
	bottom: "res4b12_branch2c"
	top: "res4b12_branch2c"
	name: "bn4b12_branch2c"
	type: "BatchNorm"
	batch_norm_param {
		use_global_stats: true
	}
	param {
		name: "bn4b12_branch2c_0"
	      lr_mult: 0
	}
	param {
		name: "bn4b12_branch2c_1"
	      lr_mult: 0
        }
	param {
		name: "bn4b12_branch2c_2"
	      lr_mult: 0
        }
}

layer {
	bottom: "res4b12_branch2c"
	top: "res4b12_branch2c"
	name: "scale4b12_branch2c"
	type: "Scale"
	scale_param {
		bias_term: true
	}
	param {
		name: "scale4b12_branch2c_0"
	      lr_mult: 0
	}
	param {
		name: "scale4b12_branch2c_1"
	      lr_mult: 0
	}
}

layer {
	bottom: "res4b11"
	bottom: "res4b12_branch2c"
	top: "res4b12"
	name: "res4b12"
	type: "Eltwise"
}

layer {
	bottom: "res4b12"
	top: "res4b12"
	name: "res4b12_relu"
	type: "ReLU"
}

layer {
	bottom: "res4b12"
	top: "res4b13_branch2a"
	name: "res4b13_branch2a"
	type: "Convolution"
  deletetop: true
	param {
		name: "res4b13_branch2a_0"
               lr_mult: ${MAIN_LR1}
               decay_mult: 1
        }
        convolution_param {
		num_output: 256
		kernel_size: 1
		pad: 0
		stride: 1
		bias_term: false
	}
}

layer {
	bottom: "res4b13_branch2a"
	top: "res4b13_branch2a"
	name: "bn4b13_branch2a"
	type: "BatchNorm"
	batch_norm_param {
		use_global_stats: true
	}
	param {
		name: "bn4b13_branch2a_0"
	      lr_mult: 0
	}
	param {
		name: "bn4b13_branch2a_1"
	      lr_mult: 0
        }
	param {
		name: "bn4b13_branch2a_2"
	      lr_mult: 0
        }
}

layer {
	bottom: "res4b13_branch2a"
	top: "res4b13_branch2a"
	name: "scale4b13_branch2a"
	type: "Scale"
	scale_param {
		bias_term: true
	}
	param {
		name: "scale4b13_branch2a_0"
	      lr_mult: 0
	}
	param {
		name: "scale4b13_branch2a_1"
	      lr_mult: 0
	}
}

layer {
	top: "res4b13_branch2a"
	bottom: "res4b13_branch2a"
	name: "res4b13_branch2a_relu"
	type: "ReLU"
}

layer {
	bottom: "res4b13_branch2a"
	top: "res4b13_branch2b"
	name: "res4b13_branch2b"
	type: "Convolution"
  deletetop: true
	param {
		name: "res4b13_branch2b_0"
               lr_mult: ${MAIN_LR1}
               decay_mult: 1
        }
        convolution_param {
		num_output: 256
		kernel_size: 3
		pad: 2
		dilation: 2
		stride: 1
		bias_term: false
	}
}

layer {
	bottom: "res4b13_branch2b"
	top: "res4b13_branch2b"
	name: "bn4b13_branch2b"
	type: "BatchNorm"
	batch_norm_param {
		use_global_stats: true
	}
	param {
		name: "bn4b13_branch2b_0"
	      lr_mult: 0
	}
	param {
		name: "bn4b13_branch2b_1"
	      lr_mult: 0
        }
	param {
		name: "bn4b13_branch2b_2"
	      lr_mult: 0
        }
}

layer {
	bottom: "res4b13_branch2b"
	top: "res4b13_branch2b"
	name: "scale4b13_branch2b"
	type: "Scale"
	scale_param {
		bias_term: true
	}
	param {
		name: "scale4b13_branch2b_0"
	      lr_mult: 0
	}
	param {
		name: "scale4b13_branch2b_1"
	      lr_mult: 0
	}
}

layer {
	top: "res4b13_branch2b"
	bottom: "res4b13_branch2b"
	name: "res4b13_branch2b_relu"
	type: "ReLU"
}

layer {
	bottom: "res4b13_branch2b"
	top: "res4b13_branch2c"
	name: "res4b13_branch2c"
	type: "Convolution"
  deletetop: true
	param {
		name: "res4b13_branch2c_0"
               lr_mult: ${MAIN_LR1}
               decay_mult: 1
        }
        convolution_param {
		num_output: 1024
		kernel_size: 1
		pad: 0
		stride: 1
		bias_term: false
	}
}

layer {
	bottom: "res4b13_branch2c"
	top: "res4b13_branch2c"
	name: "bn4b13_branch2c"
	type: "BatchNorm"
	batch_norm_param {
		use_global_stats: true
	}
	param {
		name: "bn4b13_branch2c_0"
	      lr_mult: 0
	}
	param {
		name: "bn4b13_branch2c_1"
	      lr_mult: 0
        }
	param {
		name: "bn4b13_branch2c_2"
	      lr_mult: 0
        }
}

layer {
	bottom: "res4b13_branch2c"
	top: "res4b13_branch2c"
	name: "scale4b13_branch2c"
	type: "Scale"
	scale_param {
		bias_term: true
	}
	param {
		name: "scale4b13_branch2c_0"
	      lr_mult: 0
	}
	param {
		name: "scale4b13_branch2c_1"
	      lr_mult: 0
	}
}

layer {
	bottom: "res4b12"
	bottom: "res4b13_branch2c"
	top: "res4b13"
	name: "res4b13"
	type: "Eltwise"
}

layer {
	bottom: "res4b13"
	top: "res4b13"
	name: "res4b13_relu"
	type: "ReLU"
}

layer {
	bottom: "res4b13"
	top: "res4b14_branch2a"
	name: "res4b14_branch2a"
	type: "Convolution"
  deletetop: true
	param {
		name: "res4b14_branch2a_0"
               lr_mult: ${MAIN_LR1}
               decay_mult: 1
        }
        convolution_param {
		num_output: 256
		kernel_size: 1
		pad: 0
		stride: 1
		bias_term: false
	}
}

layer {
	bottom: "res4b14_branch2a"
	top: "res4b14_branch2a"
	name: "bn4b14_branch2a"
	type: "BatchNorm"
	batch_norm_param {
		use_global_stats: true
	}
	param {
		name: "bn4b14_branch2a_0"
	      lr_mult: 0
	}
	param {
		name: "bn4b14_branch2a_1"
	      lr_mult: 0
        }
	param {
		name: "bn4b14_branch2a_2"
	      lr_mult: 0
        }
}

layer {
	bottom: "res4b14_branch2a"
	top: "res4b14_branch2a"
	name: "scale4b14_branch2a"
	type: "Scale"
	scale_param {
		bias_term: true
	}
	param {
		name: "scale4b14_branch2a_0"
	      lr_mult: 0
	}
	param {
		name: "scale4b14_branch2a_1"
	      lr_mult: 0
	}
}

layer {
	top: "res4b14_branch2a"
	bottom: "res4b14_branch2a"
	name: "res4b14_branch2a_relu"
	type: "ReLU"
}

layer {
	bottom: "res4b14_branch2a"
	top: "res4b14_branch2b"
	name: "res4b14_branch2b"
	type: "Convolution"
  deletetop: true
	param {
		name: "res4b14_branch2b_0"
               lr_mult: ${MAIN_LR1}
               decay_mult: 1
        }
        convolution_param {
		num_output: 256
		kernel_size: 3
		pad: 2
		dilation: 2
		stride: 1
		bias_term: false
	}
}

layer {
	bottom: "res4b14_branch2b"
	top: "res4b14_branch2b"
	name: "bn4b14_branch2b"
	type: "BatchNorm"
	batch_norm_param {
		use_global_stats: true
	}
	param {
		name: "bn4b14_branch2b_0"
	      lr_mult: 0
	}
	param {
		name: "bn4b14_branch2b_1"
	      lr_mult: 0
        }
	param {
		name: "bn4b14_branch2b_2"
	      lr_mult: 0
        }
}

layer {
	bottom: "res4b14_branch2b"
	top: "res4b14_branch2b"
	name: "scale4b14_branch2b"
	type: "Scale"
	scale_param {
		bias_term: true
	}
	param {
		name: "scale4b14_branch2b_0"
	      lr_mult: 0
	}
	param {
		name: "scale4b14_branch2b_1"
	      lr_mult: 0
	}
}

layer {
	top: "res4b14_branch2b"
	bottom: "res4b14_branch2b"
	name: "res4b14_branch2b_relu"
	type: "ReLU"
}

layer {
	bottom: "res4b14_branch2b"
	top: "res4b14_branch2c"
	name: "res4b14_branch2c"
	type: "Convolution"
  deletetop: true
	param {
		name: "res4b14_branch2c_0"
               lr_mult: ${MAIN_LR1}
               decay_mult: 1
        }
        convolution_param {
		num_output: 1024
		kernel_size: 1
		pad: 0
		stride: 1
		bias_term: false
	}
}

layer {
	bottom: "res4b14_branch2c"
	top: "res4b14_branch2c"
	name: "bn4b14_branch2c"
	type: "BatchNorm"
	batch_norm_param {
		use_global_stats: true
	}
	param {
		name: "bn4b14_branch2c_0"
	      lr_mult: 0
	}
	param {
		name: "bn4b14_branch2c_1"
	      lr_mult: 0
        }
	param {
		name: "bn4b14_branch2c_2"
	      lr_mult: 0
        }
}

layer {
	bottom: "res4b14_branch2c"
	top: "res4b14_branch2c"
	name: "scale4b14_branch2c"
	type: "Scale"
	scale_param {
		bias_term: true
	}
	param {
		name: "scale4b14_branch2c_0"
	      lr_mult: 0
	}
	param {
		name: "scale4b14_branch2c_1"
	      lr_mult: 0
	}
}

layer {
	bottom: "res4b13"
	bottom: "res4b14_branch2c"
	top: "res4b14"
	name: "res4b14"
	type: "Eltwise"
}

layer {
	bottom: "res4b14"
	top: "res4b14"
	name: "res4b14_relu"
	type: "ReLU"
}

layer {
	bottom: "res4b14"
	top: "res4b15_branch2a"
	name: "res4b15_branch2a"
	type: "Convolution"
  deletetop: true
	param {
		name: "res4b15_branch2a_0"
               lr_mult: ${MAIN_LR1}
               decay_mult: 1
        }
        convolution_param {
		num_output: 256
		kernel_size: 1
		pad: 0
		stride: 1
		bias_term: false
	}
}

layer {
	bottom: "res4b15_branch2a"
	top: "res4b15_branch2a"
	name: "bn4b15_branch2a"
	type: "BatchNorm"
	batch_norm_param {
		use_global_stats: true
	}
	param {
		name: "bn4b15_branch2a_0"
	      lr_mult: 0
	}
	param {
		name: "bn4b15_branch2a_1"
	      lr_mult: 0
        }
	param {
		name: "bn4b15_branch2a_2"
	      lr_mult: 0
        }
}

layer {
	bottom: "res4b15_branch2a"
	top: "res4b15_branch2a"
	name: "scale4b15_branch2a"
	type: "Scale"
	scale_param {
		bias_term: true
	}
	param {
		name: "scale4b15_branch2a_0"
	      lr_mult: 0
	}
	param {
		name: "scale4b15_branch2a_1"
	      lr_mult: 0
	}
}

layer {
	top: "res4b15_branch2a"
	bottom: "res4b15_branch2a"
	name: "res4b15_branch2a_relu"
	type: "ReLU"
}

layer {
	bottom: "res4b15_branch2a"
	top: "res4b15_branch2b"
	name: "res4b15_branch2b"
	type: "Convolution"
  deletetop: true
	param {
		name: "res4b15_branch2b_0"
               lr_mult: ${MAIN_LR1}
               decay_mult: 1
        }
        convolution_param {
		num_output: 256
		kernel_size: 3
		pad: 2
		dilation: 2
		stride: 1
		bias_term: false
	}
}

layer {
	bottom: "res4b15_branch2b"
	top: "res4b15_branch2b"
	name: "bn4b15_branch2b"
	type: "BatchNorm"
	batch_norm_param {
		use_global_stats: true
	}
	param {
		name: "bn4b15_branch2b_0"
	      lr_mult: 0
	}
	param {
		name: "bn4b15_branch2b_1"
	      lr_mult: 0
        }
	param {
		name: "bn4b15_branch2b_2"
	      lr_mult: 0
        }
}

layer {
	bottom: "res4b15_branch2b"
	top: "res4b15_branch2b"
	name: "scale4b15_branch2b"
	type: "Scale"
	scale_param {
		bias_term: true
	}
	param {
		name: "scale4b15_branch2b_0"
	      lr_mult: 0
	}
	param {
		name: "scale4b15_branch2b_1"
	      lr_mult: 0
	}
}

layer {
	top: "res4b15_branch2b"
	bottom: "res4b15_branch2b"
	name: "res4b15_branch2b_relu"
	type: "ReLU"
}

layer {
	bottom: "res4b15_branch2b"
	top: "res4b15_branch2c"
	name: "res4b15_branch2c"
	type: "Convolution"
  deletetop: true
	param {
		name: "res4b15_branch2c_0"
               lr_mult: ${MAIN_LR1}
               decay_mult: 1
        }
        convolution_param {
		num_output: 1024
		kernel_size: 1
		pad: 0
		stride: 1
		bias_term: false
	}
}

layer {
	bottom: "res4b15_branch2c"
	top: "res4b15_branch2c"
	name: "bn4b15_branch2c"
	type: "BatchNorm"
	batch_norm_param {
		use_global_stats: true
	}
	param {
		name: "bn4b15_branch2c_0"
	      lr_mult: 0
	}
	param {
		name: "bn4b15_branch2c_1"
	      lr_mult: 0
        }
	param {
		name: "bn4b15_branch2c_2"
	      lr_mult: 0
        }
}

layer {
	bottom: "res4b15_branch2c"
	top: "res4b15_branch2c"
	name: "scale4b15_branch2c"
	type: "Scale"
	scale_param {
		bias_term: true
	}
	param {
		name: "scale4b15_branch2c_0"
	      lr_mult: 0
	}
	param {
		name: "scale4b15_branch2c_1"
	      lr_mult: 0
	}
}

layer {
	bottom: "res4b14"
	bottom: "res4b15_branch2c"
	top: "res4b15"
	name: "res4b15"
	type: "Eltwise"
}

layer {
	bottom: "res4b15"
	top: "res4b15"
	name: "res4b15_relu"
	type: "ReLU"
}

layer {
	bottom: "res4b15"
	top: "res4b16_branch2a"
	name: "res4b16_branch2a"
	type: "Convolution"
  deletetop: true
	param {
		name: "res4b16_branch2a_0"
               lr_mult: ${MAIN_LR1}
               decay_mult: 1
        }
        convolution_param {
		num_output: 256
		kernel_size: 1
		pad: 0
		stride: 1
		bias_term: false
	}
}

layer {
	bottom: "res4b16_branch2a"
	top: "res4b16_branch2a"
	name: "bn4b16_branch2a"
	type: "BatchNorm"
	batch_norm_param {
		use_global_stats: true
	}
	param {
		name: "bn4b16_branch2a_0"
	      lr_mult: 0
	}
	param {
		name: "bn4b16_branch2a_1"
	      lr_mult: 0
        }
	param {
		name: "bn4b16_branch2a_2"
	      lr_mult: 0
        }
}

layer {
	bottom: "res4b16_branch2a"
	top: "res4b16_branch2a"
	name: "scale4b16_branch2a"
	type: "Scale"
	scale_param {
		bias_term: true
	}
	param {
		name: "scale4b16_branch2a_0"
	      lr_mult: 0
	}
	param {
		name: "scale4b16_branch2a_1"
	      lr_mult: 0
	}
}

layer {
	top: "res4b16_branch2a"
	bottom: "res4b16_branch2a"
	name: "res4b16_branch2a_relu"
	type: "ReLU"
}

layer {
	bottom: "res4b16_branch2a"
	top: "res4b16_branch2b"
	name: "res4b16_branch2b"
	type: "Convolution"
  deletetop: true
	param {
		name: "res4b16_branch2b_0"
               lr_mult: ${MAIN_LR1}
               decay_mult: 1
        }
        convolution_param {
		num_output: 256
		kernel_size: 3
		pad: 2
		dilation: 2
		stride: 1
		bias_term: false
	}
}

layer {
	bottom: "res4b16_branch2b"
	top: "res4b16_branch2b"
	name: "bn4b16_branch2b"
	type: "BatchNorm"
	batch_norm_param {
		use_global_stats: true
	}
	param {
		name: "bn4b16_branch2b_0"
	      lr_mult: 0
	}
	param {
		name: "bn4b16_branch2b_1"
	      lr_mult: 0
        }
	param {
		name: "bn4b16_branch2b_2"
	      lr_mult: 0
        }
}

layer {
	bottom: "res4b16_branch2b"
	top: "res4b16_branch2b"
	name: "scale4b16_branch2b"
	type: "Scale"
	scale_param {
		bias_term: true
	}
	param {
		name: "scale4b16_branch2b_0"
	      lr_mult: 0
	}
	param {
		name: "scale4b16_branch2b_1"
	      lr_mult: 0
	}
}

layer {
	top: "res4b16_branch2b"
	bottom: "res4b16_branch2b"
	name: "res4b16_branch2b_relu"
	type: "ReLU"
}

layer {
	bottom: "res4b16_branch2b"
	top: "res4b16_branch2c"
	name: "res4b16_branch2c"
	type: "Convolution"
  deletetop: true
	param {
		name: "res4b16_branch2c_0"
               lr_mult: ${MAIN_LR1}
               decay_mult: 1
        }
        convolution_param {
		num_output: 1024
		kernel_size: 1
		pad: 0
		stride: 1
		bias_term: false
	}
}

layer {
	bottom: "res4b16_branch2c"
	top: "res4b16_branch2c"
	name: "bn4b16_branch2c"
	type: "BatchNorm"
	batch_norm_param {
		use_global_stats: true
	}
	param {
		name: "bn4b16_branch2c_0"
	      lr_mult: 0
	}
	param {
		name: "bn4b16_branch2c_1"
	      lr_mult: 0
        }
	param {
		name: "bn4b16_branch2c_2"
	      lr_mult: 0
        }
}

layer {
	bottom: "res4b16_branch2c"
	top: "res4b16_branch2c"
	name: "scale4b16_branch2c"
	type: "Scale"
	scale_param {
		bias_term: true
	}
	param {
		name: "scale4b16_branch2c_0"
	      lr_mult: 0
	}
	param {
		name: "scale4b16_branch2c_1"
	      lr_mult: 0
	}
}

layer {
	bottom: "res4b15"
	bottom: "res4b16_branch2c"
	top: "res4b16"
	name: "res4b16"
	type: "Eltwise"
}

layer {
	bottom: "res4b16"
	top: "res4b16"
	name: "res4b16_relu"
	type: "ReLU"
}

layer {
	bottom: "res4b16"
	top: "res4b17_branch2a"
	name: "res4b17_branch2a"
	type: "Convolution"
  deletetop: true
	param {
		name: "res4b17_branch2a_0"
               lr_mult: ${MAIN_LR1}
               decay_mult: 1
        }
        convolution_param {
		num_output: 256
		kernel_size: 1
		pad: 0
		stride: 1
		bias_term: false
	}
}

layer {
	bottom: "res4b17_branch2a"
	top: "res4b17_branch2a"
	name: "bn4b17_branch2a"
	type: "BatchNorm"
	batch_norm_param {
		use_global_stats: true
	}
	param {
		name: "bn4b17_branch2a_0"
	      lr_mult: 0
	}
	param {
		name: "bn4b17_branch2a_1"
	      lr_mult: 0
        }
	param {
		name: "bn4b17_branch2a_2"
	      lr_mult: 0
        }
}

layer {
	bottom: "res4b17_branch2a"
	top: "res4b17_branch2a"
	name: "scale4b17_branch2a"
	type: "Scale"
	scale_param {
		bias_term: true
	}
	param {
		name: "scale4b17_branch2a_0"
	      lr_mult: 0
	}
	param {
		name: "scale4b17_branch2a_1"
	      lr_mult: 0
	}
}

layer {
	top: "res4b17_branch2a"
	bottom: "res4b17_branch2a"
	name: "res4b17_branch2a_relu"
	type: "ReLU"
}

layer {
	bottom: "res4b17_branch2a"
	top: "res4b17_branch2b"
	name: "res4b17_branch2b"
	type: "Convolution"
  deletetop: true
	param {
		name: "res4b17_branch2b_0"
               lr_mult: ${MAIN_LR1}
               decay_mult: 1
        }
        convolution_param {
		num_output: 256
		kernel_size: 3
		pad: 2
		dilation: 2
		stride: 1
		bias_term: false
	}
}

layer {
	bottom: "res4b17_branch2b"
	top: "res4b17_branch2b"
	name: "bn4b17_branch2b"
	type: "BatchNorm"
	batch_norm_param {
		use_global_stats: true
	}
	param {
		name: "bn4b17_branch2b_0"
	      lr_mult: 0
	}
	param {
		name: "bn4b17_branch2b_1"
	      lr_mult: 0
        }
	param {
		name: "bn4b17_branch2b_2"
	      lr_mult: 0
        }
}

layer {
	bottom: "res4b17_branch2b"
	top: "res4b17_branch2b"
	name: "scale4b17_branch2b"
	type: "Scale"
	scale_param {
		bias_term: true
	}
	param {
		name: "scale4b17_branch2b_0"
	      lr_mult: 0
	}
	param {
		name: "scale4b17_branch2b_1"
	      lr_mult: 0
	}
}

layer {
	top: "res4b17_branch2b"
	bottom: "res4b17_branch2b"
	name: "res4b17_branch2b_relu"
	type: "ReLU"
}

layer {
	bottom: "res4b17_branch2b"
	top: "res4b17_branch2c"
	name: "res4b17_branch2c"
	type: "Convolution"
  deletetop: true
	param {
		name: "res4b17_branch2c_0"
               lr_mult: ${MAIN_LR1}
               decay_mult: 1
        }
        convolution_param {
		num_output: 1024
		kernel_size: 1
		pad: 0
		stride: 1
		bias_term: false
	}
}

layer {
	bottom: "res4b17_branch2c"
	top: "res4b17_branch2c"
	name: "bn4b17_branch2c"
	type: "BatchNorm"
	batch_norm_param {
		use_global_stats: true
	}
	param {
		name: "bn4b17_branch2c_0"
	      lr_mult: 0
	}
	param {
		name: "bn4b17_branch2c_1"
	      lr_mult: 0
        }
	param {
		name: "bn4b17_branch2c_2"
	      lr_mult: 0
        }
}

layer {
	bottom: "res4b17_branch2c"
	top: "res4b17_branch2c"
	name: "scale4b17_branch2c"
	type: "Scale"
	scale_param {
		bias_term: true
	}
	param {
		name: "scale4b17_branch2c_0"
	      lr_mult: 0
	}
	param {
		name: "scale4b17_branch2c_1"
	      lr_mult: 0
	}
}

layer {
	bottom: "res4b16"
	bottom: "res4b17_branch2c"
	top: "res4b17"
	name: "res4b17"
	type: "Eltwise"
}

layer {
	bottom: "res4b17"
	top: "res4b17"
	name: "res4b17_relu"
	type: "ReLU"
}

layer {
	bottom: "res4b17"
	top: "res4b18_branch2a"
	name: "res4b18_branch2a"
	type: "Convolution"
  deletetop: true
	param {
		name: "res4b18_branch2a_0"
               lr_mult: ${MAIN_LR1}
               decay_mult: 1
        }
        convolution_param {
		num_output: 256
		kernel_size: 1
		pad: 0
		stride: 1
		bias_term: false
	}
}

layer {
	bottom: "res4b18_branch2a"
	top: "res4b18_branch2a"
	name: "bn4b18_branch2a"
	type: "BatchNorm"
	batch_norm_param {
		use_global_stats: true
	}
	param {
		name: "bn4b18_branch2a_0"
	      lr_mult: 0
	}
	param {
		name: "bn4b18_branch2a_1"
	      lr_mult: 0
        }
	param {
		name: "bn4b18_branch2a_2"
	      lr_mult: 0
        }
}

layer {
	bottom: "res4b18_branch2a"
	top: "res4b18_branch2a"
	name: "scale4b18_branch2a"
	type: "Scale"
	scale_param {
		bias_term: true
	}
	param {
		name: "scale4b18_branch2a_0"
	      lr_mult: 0
	}
	param {
		name: "scale4b18_branch2a_1"
	      lr_mult: 0
	}
}

layer {
	top: "res4b18_branch2a"
	bottom: "res4b18_branch2a"
	name: "res4b18_branch2a_relu"
	type: "ReLU"
}

layer {
	bottom: "res4b18_branch2a"
	top: "res4b18_branch2b"
	name: "res4b18_branch2b"
	type: "Convolution"
  deletetop: true
	param {
		name: "res4b18_branch2b_0"
               lr_mult: ${MAIN_LR1}
               decay_mult: 1
        }
        convolution_param {
		num_output: 256
		kernel_size: 3
		pad: 2
		dilation: 2
		stride: 1
		bias_term: false
	}
}

layer {
	bottom: "res4b18_branch2b"
	top: "res4b18_branch2b"
	name: "bn4b18_branch2b"
	type: "BatchNorm"
	batch_norm_param {
		use_global_stats: true
	}
	param {
		name: "bn4b18_branch2b_0"
	      lr_mult: 0
	}
	param {
		name: "bn4b18_branch2b_1"
	      lr_mult: 0
        }
	param {
		name: "bn4b18_branch2b_2"
	      lr_mult: 0
        }
}

layer {
	bottom: "res4b18_branch2b"
	top: "res4b18_branch2b"
	name: "scale4b18_branch2b"
	type: "Scale"
	scale_param {
		bias_term: true
	}
	param {
		name: "scale4b18_branch2b_0"
	      lr_mult: 0
	}
	param {
		name: "scale4b18_branch2b_1"
	      lr_mult: 0
	}
}

layer {
	top: "res4b18_branch2b"
	bottom: "res4b18_branch2b"
	name: "res4b18_branch2b_relu"
	type: "ReLU"
}

layer {
	bottom: "res4b18_branch2b"
	top: "res4b18_branch2c"
	name: "res4b18_branch2c"
	type: "Convolution"
  deletetop: true
	param {
		name: "res4b18_branch2c_0"
               lr_mult: ${MAIN_LR1}
               decay_mult: 1
        }
        convolution_param {
		num_output: 1024
		kernel_size: 1
		pad: 0
		stride: 1
		bias_term: false
	}
}

layer {
	bottom: "res4b18_branch2c"
	top: "res4b18_branch2c"
	name: "bn4b18_branch2c"
	type: "BatchNorm"
	batch_norm_param {
		use_global_stats: true
	}
	param {
		name: "bn4b18_branch2c_0"
	      lr_mult: 0
	}
	param {
		name: "bn4b18_branch2c_1"
	      lr_mult: 0
        }
	param {
		name: "bn4b18_branch2c_2"
	      lr_mult: 0
        }
}

layer {
	bottom: "res4b18_branch2c"
	top: "res4b18_branch2c"
	name: "scale4b18_branch2c"
	type: "Scale"
	scale_param {
		bias_term: true
	}
	param {
		name: "scale4b18_branch2c_0"
	      lr_mult: 0
	}
	param {
		name: "scale4b18_branch2c_1"
	      lr_mult: 0
	}
}

layer {
	bottom: "res4b17"
	bottom: "res4b18_branch2c"
	top: "res4b18"
	name: "res4b18"
	type: "Eltwise"
}

layer {
	bottom: "res4b18"
	top: "res4b18"
	name: "res4b18_relu"
	type: "ReLU"
}

layer {
	bottom: "res4b18"
	top: "res4b19_branch2a"
	name: "res4b19_branch2a"
	type: "Convolution"
  deletetop: true
	param {
		name: "res4b19_branch2a_0"
               lr_mult: ${MAIN_LR1}
               decay_mult: 1
        }
        convolution_param {
		num_output: 256
		kernel_size: 1
		pad: 0
		stride: 1
		bias_term: false
	}
}

layer {
	bottom: "res4b19_branch2a"
	top: "res4b19_branch2a"
	name: "bn4b19_branch2a"
	type: "BatchNorm"
	batch_norm_param {
		use_global_stats: true
	}
	param {
		name: "bn4b19_branch2a_0"
	      lr_mult: 0
	}
	param {
		name: "bn4b19_branch2a_1"
	      lr_mult: 0
        }
	param {
		name: "bn4b19_branch2a_2"
	      lr_mult: 0
        }
}

layer {
	bottom: "res4b19_branch2a"
	top: "res4b19_branch2a"
	name: "scale4b19_branch2a"
	type: "Scale"
	scale_param {
		bias_term: true
	}
	param {
		name: "scale4b19_branch2a_0"
	      lr_mult: 0
	}
	param {
		name: "scale4b19_branch2a_1"
	      lr_mult: 0
	}
}

layer {
	top: "res4b19_branch2a"
	bottom: "res4b19_branch2a"
	name: "res4b19_branch2a_relu"
	type: "ReLU"
}

layer {
	bottom: "res4b19_branch2a"
	top: "res4b19_branch2b"
	name: "res4b19_branch2b"
	type: "Convolution"
  deletetop: true
	param {
		name: "res4b19_branch2b_0"
               lr_mult: ${MAIN_LR1}
               decay_mult: 1
        }
        convolution_param {
		num_output: 256
		kernel_size: 3
		pad: 2
		dilation: 2
		stride: 1
		bias_term: false
	}
}

layer {
	bottom: "res4b19_branch2b"
	top: "res4b19_branch2b"
	name: "bn4b19_branch2b"
	type: "BatchNorm"
	batch_norm_param {
		use_global_stats: true
	}
	param {
		name: "bn4b19_branch2b_0"
	      lr_mult: 0
	}
	param {
		name: "bn4b19_branch2b_1"
	      lr_mult: 0
        }
	param {
		name: "bn4b19_branch2b_2"
	      lr_mult: 0
        }
}

layer {
	bottom: "res4b19_branch2b"
	top: "res4b19_branch2b"
	name: "scale4b19_branch2b"
	type: "Scale"
	scale_param {
		bias_term: true
	}
	param {
		name: "scale4b19_branch2b_0"
	      lr_mult: 0
	}
	param {
		name: "scale4b19_branch2b_1"
	      lr_mult: 0
	}
}

layer {
	top: "res4b19_branch2b"
	bottom: "res4b19_branch2b"
	name: "res4b19_branch2b_relu"
	type: "ReLU"
}

layer {
	bottom: "res4b19_branch2b"
	top: "res4b19_branch2c"
	name: "res4b19_branch2c"
	type: "Convolution"
  deletetop: true
	param {
		name: "res4b19_branch2c_0"
               lr_mult: ${MAIN_LR1}
               decay_mult: 1
        }
        convolution_param {
		num_output: 1024
		kernel_size: 1
		pad: 0
		stride: 1
		bias_term: false
	}
}

layer {
	bottom: "res4b19_branch2c"
	top: "res4b19_branch2c"
	name: "bn4b19_branch2c"
	type: "BatchNorm"
	batch_norm_param {
		use_global_stats: true
	}
	param {
		name: "bn4b19_branch2c_0"
	      lr_mult: 0
	}
	param {
		name: "bn4b19_branch2c_1"
	      lr_mult: 0
        }
	param {
		name: "bn4b19_branch2c_2"
	      lr_mult: 0
        }
}

layer {
	bottom: "res4b19_branch2c"
	top: "res4b19_branch2c"
	name: "scale4b19_branch2c"
	type: "Scale"
	scale_param {
		bias_term: true
	}
	param {
		name: "scale4b19_branch2c_0"
	      lr_mult: 0
	}
	param {
		name: "scale4b19_branch2c_1"
	      lr_mult: 0
	}
}

layer {
	bottom: "res4b18"
	bottom: "res4b19_branch2c"
	top: "res4b19"
	name: "res4b19"
	type: "Eltwise"
}

layer {
	bottom: "res4b19"
	top: "res4b19"
	name: "res4b19_relu"
	type: "ReLU"
}

layer {
	bottom: "res4b19"
	top: "res4b20_branch2a"
	name: "res4b20_branch2a"
	type: "Convolution"
  deletetop: true
	param {
		name: "res4b20_branch2a_0"
               lr_mult: ${MAIN_LR1}
               decay_mult: 1
        }
        convolution_param {
		num_output: 256
		kernel_size: 1
		pad: 0
		stride: 1
		bias_term: false
	}
}

layer {
	bottom: "res4b20_branch2a"
	top: "res4b20_branch2a"
	name: "bn4b20_branch2a"
	type: "BatchNorm"
	batch_norm_param {
		use_global_stats: true
	}
	param {
		name: "bn4b20_branch2a_0"
	      lr_mult: 0
	}
	param {
		name: "bn4b20_branch2a_1"
	      lr_mult: 0
        }
	param {
		name: "bn4b20_branch2a_2"
	      lr_mult: 0
        }
}

layer {
	bottom: "res4b20_branch2a"
	top: "res4b20_branch2a"
	name: "scale4b20_branch2a"
	type: "Scale"
	scale_param {
		bias_term: true
	}
	param {
		name: "scale4b20_branch2a_0"
	      lr_mult: 0
	}
	param {
		name: "scale4b20_branch2a_1"
	      lr_mult: 0
	}
}

layer {
	top: "res4b20_branch2a"
	bottom: "res4b20_branch2a"
	name: "res4b20_branch2a_relu"
	type: "ReLU"
}

layer {
	bottom: "res4b20_branch2a"
	top: "res4b20_branch2b"
	name: "res4b20_branch2b"
	type: "Convolution"
  deletetop: true
	param {
		name: "res4b20_branch2b_0"
               lr_mult: ${MAIN_LR1}
               decay_mult: 1
        }
        convolution_param {
		num_output: 256
		kernel_size: 3
		pad: 2
		dilation: 2
		stride: 1
		bias_term: false
	}
}

layer {
	bottom: "res4b20_branch2b"
	top: "res4b20_branch2b"
	name: "bn4b20_branch2b"
	type: "BatchNorm"
	batch_norm_param {
		use_global_stats: true
	}
	param {
		name: "bn4b20_branch2b_0"
	      lr_mult: 0
	}
	param {
		name: "bn4b20_branch2b_1"
	      lr_mult: 0
        }
	param {
		name: "bn4b20_branch2b_2"
	      lr_mult: 0
        }
}

layer {
	bottom: "res4b20_branch2b"
	top: "res4b20_branch2b"
	name: "scale4b20_branch2b"
	type: "Scale"
	scale_param {
		bias_term: true
	}
	param {
		name: "scale4b20_branch2b_0"
	      lr_mult: 0
	}
	param {
		name: "scale4b20_branch2b_1"
	      lr_mult: 0
	}
}

layer {
	top: "res4b20_branch2b"
	bottom: "res4b20_branch2b"
	name: "res4b20_branch2b_relu"
	type: "ReLU"
}

layer {
	bottom: "res4b20_branch2b"
	top: "res4b20_branch2c"
	name: "res4b20_branch2c"
	type: "Convolution"
  deletetop: true
	param {
		name: "res4b20_branch2c_0"
               lr_mult: ${MAIN_LR1}
               decay_mult: 1
        }
        convolution_param {
		num_output: 1024
		kernel_size: 1
		pad: 0
		stride: 1
		bias_term: false
	}
}

layer {
	bottom: "res4b20_branch2c"
	top: "res4b20_branch2c"
	name: "bn4b20_branch2c"
	type: "BatchNorm"
	batch_norm_param {
		use_global_stats: true
	}
	param {
		name: "bn4b20_branch2c_0"
	      lr_mult: 0
	}
	param {
		name: "bn4b20_branch2c_1"
	      lr_mult: 0
        }
	param {
		name: "bn4b20_branch2c_2"
	      lr_mult: 0
        }
}

layer {
	bottom: "res4b20_branch2c"
	top: "res4b20_branch2c"
	name: "scale4b20_branch2c"
	type: "Scale"
	scale_param {
		bias_term: true
	}
	param {
		name: "scale4b20_branch2c_0"
	      lr_mult: 0
	}
	param {
		name: "scale4b20_branch2c_1"
	      lr_mult: 0
	}
}

layer {
	bottom: "res4b19"
	bottom: "res4b20_branch2c"
	top: "res4b20"
	name: "res4b20"
	type: "Eltwise"
}

layer {
	bottom: "res4b20"
	top: "res4b20"
	name: "res4b20_relu"
	type: "ReLU"
}

layer {
	bottom: "res4b20"
	top: "res4b21_branch2a"
	name: "res4b21_branch2a"
	type: "Convolution"
  deletetop: true
	param {
		name: "res4b21_branch2a_0"
               lr_mult: ${MAIN_LR1}
               decay_mult: 1
        }
        convolution_param {
		num_output: 256
		kernel_size: 1
		pad: 0
		stride: 1
		bias_term: false
	}
}

layer {
	bottom: "res4b21_branch2a"
	top: "res4b21_branch2a"
	name: "bn4b21_branch2a"
	type: "BatchNorm"
	batch_norm_param {
		use_global_stats: true
	}
	param {
		name: "bn4b21_branch2a_0"
	      lr_mult: 0
	}
	param {
		name: "bn4b21_branch2a_1"
	      lr_mult: 0
        }
	param {
		name: "bn4b21_branch2a_2"
	      lr_mult: 0
        }
}

layer {
	bottom: "res4b21_branch2a"
	top: "res4b21_branch2a"
	name: "scale4b21_branch2a"
	type: "Scale"
	scale_param {
		bias_term: true
	}
	param {
		name: "scale4b21_branch2a_0"
	      lr_mult: 0
	}
	param {
		name: "scale4b21_branch2a_1"
	      lr_mult: 0
	}
}

layer {
	top: "res4b21_branch2a"
	bottom: "res4b21_branch2a"
	name: "res4b21_branch2a_relu"
	type: "ReLU"
}

layer {
	bottom: "res4b21_branch2a"
	top: "res4b21_branch2b"
	name: "res4b21_branch2b"
	type: "Convolution"
  deletetop: true
	param {
		name: "res4b21_branch2b_0"
               lr_mult: ${MAIN_LR1}
               decay_mult: 1
        }
        convolution_param {
		num_output: 256
		kernel_size: 3
		pad: 2
		dilation: 2
		stride: 1
		bias_term: false
	}
}

layer {
	bottom: "res4b21_branch2b"
	top: "res4b21_branch2b"
	name: "bn4b21_branch2b"
	type: "BatchNorm"
	batch_norm_param {
		use_global_stats: true
	}
	param {
		name: "bn4b21_branch2b_0"
	      lr_mult: 0
	}
	param {
		name: "bn4b21_branch2b_1"
	      lr_mult: 0
        }
	param {
		name: "bn4b21_branch2b_2"
	      lr_mult: 0
        }
}

layer {
	bottom: "res4b21_branch2b"
	top: "res4b21_branch2b"
	name: "scale4b21_branch2b"
	type: "Scale"
	scale_param {
		bias_term: true
	}
	param {
		name: "scale4b21_branch2b_0"
	      lr_mult: 0
	}
	param {
		name: "scale4b21_branch2b_1"
	      lr_mult: 0
	}
}

layer {
	top: "res4b21_branch2b"
	bottom: "res4b21_branch2b"
	name: "res4b21_branch2b_relu"
	type: "ReLU"
}

layer {
	bottom: "res4b21_branch2b"
	top: "res4b21_branch2c"
	name: "res4b21_branch2c"
	type: "Convolution"
  deletetop: true
	param {
		name: "res4b21_branch2c_0"
               lr_mult: ${MAIN_LR1}
               decay_mult: 1
        }
        convolution_param {
		num_output: 1024
		kernel_size: 1
		pad: 0
		stride: 1
		bias_term: false
	}
}

layer {
	bottom: "res4b21_branch2c"
	top: "res4b21_branch2c"
	name: "bn4b21_branch2c"
	type: "BatchNorm"
	batch_norm_param {
		use_global_stats: true
	}
	param {
		name: "bn4b21_branch2c_0"
	      lr_mult: 0
	}
	param {
		name: "bn4b21_branch2c_1"
	      lr_mult: 0
        }
	param {
		name: "bn4b21_branch2c_2"
	      lr_mult: 0
        }
}

layer {
	bottom: "res4b21_branch2c"
	top: "res4b21_branch2c"
	name: "scale4b21_branch2c"
	type: "Scale"
	scale_param {
		bias_term: true
	}
	param {
		name: "scale4b21_branch2c_0"
	      lr_mult: 0
	}
	param {
		name: "scale4b21_branch2c_1"
	      lr_mult: 0
	}
}

layer {
	bottom: "res4b20"
	bottom: "res4b21_branch2c"
	top: "res4b21"
	name: "res4b21"
	type: "Eltwise"
}

layer {
	bottom: "res4b21"
	top: "res4b21"
	name: "res4b21_relu"
	type: "ReLU"
}

layer {
	bottom: "res4b21"
	top: "res4b22_branch2a"
	name: "res4b22_branch2a"
	type: "Convolution"
  deletetop: true
	param {
		name: "res4b22_branch2a_0"
               lr_mult: ${MAIN_LR1}
               decay_mult: 1
        }
        convolution_param {
		num_output: 256
		kernel_size: 1
		pad: 0
		stride: 1
		bias_term: false
	}
}

layer {
	bottom: "res4b22_branch2a"
	top: "res4b22_branch2a"
	name: "bn4b22_branch2a"
	type: "BatchNorm"
	batch_norm_param {
		use_global_stats: true
	}
	param {
		name: "bn4b22_branch2a_0"
	      lr_mult: 0
	}
	param {
		name: "bn4b22_branch2a_1"
	      lr_mult: 0
        }
	param {
		name: "bn4b22_branch2a_2"
	      lr_mult: 0
        }
}

layer {
	bottom: "res4b22_branch2a"
	top: "res4b22_branch2a"
	name: "scale4b22_branch2a"
	type: "Scale"
	scale_param {
		bias_term: true
	}
	param {
		name: "scale4b22_branch2a_0"
	      lr_mult: 0
	}
	param {
		name: "scale4b22_branch2a_1"
	      lr_mult: 0
	}
}

layer {
	top: "res4b22_branch2a"
	bottom: "res4b22_branch2a"
	name: "res4b22_branch2a_relu"
	type: "ReLU"
}

layer {
	bottom: "res4b22_branch2a"
	top: "res4b22_branch2b"
	name: "res4b22_branch2b"
	type: "Convolution"
  deletetop: true
	param {
		name: "res4b22_branch2b_0"
               lr_mult: ${MAIN_LR1}
               decay_mult: 1
        }
        convolution_param {
		num_output: 256
		kernel_size: 3
		pad: 2
		dilation: 2
		stride: 1
		bias_term: false
	}
}

layer {
	bottom: "res4b22_branch2b"
	top: "res4b22_branch2b"
	name: "bn4b22_branch2b"
	type: "BatchNorm"
	batch_norm_param {
		use_global_stats: true
	}
	param {
		name: "bn4b22_branch2b_0"
	      lr_mult: 0
	}
	param {
		name: "bn4b22_branch2b_1"
	      lr_mult: 0
        }
	param {
		name: "bn4b22_branch2b_2"
	      lr_mult: 0
        }
}

layer {
	bottom: "res4b22_branch2b"
	top: "res4b22_branch2b"
	name: "scale4b22_branch2b"
	type: "Scale"
	scale_param {
		bias_term: true
	}
	param {
		name: "scale4b22_branch2b_0"
	      lr_mult: 0
	}
	param {
		name: "scale4b22_branch2b_1"
	      lr_mult: 0
	}
}

layer {
	top: "res4b22_branch2b"
	bottom: "res4b22_branch2b"
	name: "res4b22_branch2b_relu"
	type: "ReLU"
}

layer {
	bottom: "res4b22_branch2b"
	top: "res4b22_branch2c"
	name: "res4b22_branch2c"
	type: "Convolution"
  deletetop: true
	param {
		name: "res4b22_branch2c_0"
               lr_mult: ${MAIN_LR1}
               decay_mult: 1
        }
        convolution_param {
		num_output: 1024
		kernel_size: 1
		pad: 0
		stride: 1
		bias_term: false
	}
}

layer {
	bottom: "res4b22_branch2c"
	top: "res4b22_branch2c"
	name: "bn4b22_branch2c"
	type: "BatchNorm"
	batch_norm_param {
		use_global_stats: true
	}
	param {
		name: "bn4b22_branch2c_0"
	      lr_mult: 0
	}
	param {
		name: "bn4b22_branch2c_1"
	      lr_mult: 0
        }
	param {
		name: "bn4b22_branch2c_2"
	      lr_mult: 0
        }
}

layer {
	bottom: "res4b22_branch2c"
	top: "res4b22_branch2c"
	name: "scale4b22_branch2c"
	type: "Scale"
	scale_param {
		bias_term: true
	}
	param {
		name: "scale4b22_branch2c_0"
	      lr_mult: 0
	}
	param {
		name: "scale4b22_branch2c_1"
	      lr_mult: 0
	}
}

layer {
	bottom: "res4b21"
	bottom: "res4b22_branch2c"
	top: "res4b22"
	name: "res4b22"
	type: "Eltwise"
}

layer {
	bottom: "res4b22"
	top: "res4b22"
	name: "res4b22_relu"
	type: "ReLU"
}

layer {
	bottom: "res4b22"
	top: "res5a_branch1"
	name: "res5a_branch1"
	type: "Convolution"
  deletetop: true
	param {
		name: "res5a_branch1_0"
               lr_mult: ${MAIN_LR1}
               decay_mult: 1
        }
        convolution_param {
		num_output: 2048
		kernel_size: 1
		pad: 0
		stride: 1
		bias_term: false
	}
}

layer {
	bottom: "res5a_branch1"
	top: "res5a_branch1"
	name: "bn5a_branch1"
	type: "BatchNorm"
	batch_norm_param {
		use_global_stats: true
	}
	param {
		name: "bn5a_branch1_0"
	      lr_mult: 0
	}
	param {
		name: "bn5a_branch1_1"
	      lr_mult: 0
        }
	param {
		name: "bn5a_branch1_2"
	      lr_mult: 0
        }
}

layer {
	bottom: "res5a_branch1"
	top: "res5a_branch1"
	name: "scale5a_branch1"
	type: "Scale"
	scale_param {
		bias_term: true
	}
	param {
		name: "scale5a_branch1_0"
	      lr_mult: 0
	}
	param {
		name: "scale5a_branch1_1"
	      lr_mult: 0
	}
}

layer {
	bottom: "res4b22"
	top: "res5a_branch2a"
	name: "res5a_branch2a"
	type: "Convolution"
  deletetop: true
	param {
		name: "res5a_branch2a_0"
               lr_mult: ${MAIN_LR1}
               decay_mult: 1
        }
        convolution_param {
		num_output: 512
		kernel_size: 1
		pad: 0
		stride: 1
		bias_term: false
	}
}

layer {
	bottom: "res5a_branch2a"
	top: "res5a_branch2a"
	name: "bn5a_branch2a"
	type: "BatchNorm"
	batch_norm_param {
		use_global_stats: true
	}
	param {
		name: "bn5a_branch2a_0"
	      lr_mult: 0
	}
	param {
		name: "bn5a_branch2a_1"
	      lr_mult: 0
        }
	param {
		name: "bn5a_branch2a_2"
	      lr_mult: 0
        }
}

layer {
	bottom: "res5a_branch2a"
	top: "res5a_branch2a"
	name: "scale5a_branch2a"
	type: "Scale"
	scale_param {
		bias_term: true
	}
	param {
		name: "scale5a_branch2a_0"
	      lr_mult: 0
	}
	param {
		name: "scale5a_branch2a_1"
	      lr_mult: 0
	}
}

layer {
	top: "res5a_branch2a"
	bottom: "res5a_branch2a"
	name: "res5a_branch2a_relu"
	type: "ReLU"
}

layer {
	bottom: "res5a_branch2a"
	top: "res5a_branch2b"
	name: "res5a_branch2b"
	type: "Convolution"
  deletetop: true
	param {
		name: "res5a_branch2b_0"
               lr_mult: ${MAIN_LR1}
               decay_mult: 1
        }
        convolution_param {
		num_output: 512
		kernel_size: 3
		pad: 4
		dilation: 4
		stride: 1
		bias_term: false
	}
}

layer {
	bottom: "res5a_branch2b"
	top: "res5a_branch2b"
	name: "bn5a_branch2b"
	type: "BatchNorm"
	batch_norm_param {
		use_global_stats: true
	}
	param {
		name: "bn5a_branch2b_0"
	      lr_mult: 0
	}
	param {
		name: "bn5a_branch2b_1"
	      lr_mult: 0
        }
	param {
		name: "bn5a_branch2b_2"
	      lr_mult: 0
        }
}

layer {
	bottom: "res5a_branch2b"
	top: "res5a_branch2b"
	name: "scale5a_branch2b"
	type: "Scale"
	scale_param {
		bias_term: true
	}
	param {
		name: "scale5a_branch2b_0"
	      lr_mult: 0
	}
	param {
		name: "scale5a_branch2b_1"
	      lr_mult: 0
	}
}

layer {
	top: "res5a_branch2b"
	bottom: "res5a_branch2b"
	name: "res5a_branch2b_relu"
	type: "ReLU"
}

layer {
	bottom: "res5a_branch2b"
	top: "res5a_branch2c"
	name: "res5a_branch2c"
	type: "Convolution"
  deletetop: true
	param {
		name: "res5a_branch2c_0"
               lr_mult: ${MAIN_LR1}
               decay_mult: 1
        }
        convolution_param {
		num_output: 2048
		kernel_size: 1
		pad: 0
		stride: 1
		bias_term: false
	}
}

layer {
	bottom: "res5a_branch2c"
	top: "res5a_branch2c"
	name: "bn5a_branch2c"
	type: "BatchNorm"
	batch_norm_param {
		use_global_stats: true
	}
	param {
		name: "bn5a_branch2c_0"
	      lr_mult: 0
	}
	param {
		name: "bn5a_branch2c_1"
	      lr_mult: 0
        }
	param {
		name: "bn5a_branch2c_2"
	      lr_mult: 0
        }
}

layer {
	bottom: "res5a_branch2c"
	top: "res5a_branch2c"
	name: "scale5a_branch2c"
	type: "Scale"
	scale_param {
		bias_term: true
	}
	param {
		name: "scale5a_branch2c_0"
	      lr_mult: 0
	}
	param {
		name: "scale5a_branch2c_1"
	      lr_mult: 0
	}
}

layer {
	bottom: "res5a_branch1"
	bottom: "res5a_branch2c"
	top: "res5a"
	name: "res5a"
	type: "Eltwise"
}

layer {
	bottom: "res5a"
	top: "res5a"
	name: "res5a_relu"
	type: "ReLU"
}

layer {
	bottom: "res5a"
	top: "res5b_branch2a"
	name: "res5b_branch2a"
	type: "Convolution"
  deletetop: true
	param {
		name: "res5b_branch2a_0"
               lr_mult: ${MAIN_LR1}
               decay_mult: 1
        }
        convolution_param {
		num_output: 512
		kernel_size: 1
		pad: 0
		stride: 1
		bias_term: false
	}
}

layer {
	bottom: "res5b_branch2a"
	top: "res5b_branch2a"
	name: "bn5b_branch2a"
	type: "BatchNorm"
	batch_norm_param {
		use_global_stats: true
	}
	param {
		name: "bn5b_branch2a_0"
	      lr_mult: 0
	}
	param {
		name: "bn5b_branch2a_1"
	      lr_mult: 0
        }
	param {
		name: "bn5b_branch2a_2"
	      lr_mult: 0
        }
}

layer {
	bottom: "res5b_branch2a"
	top: "res5b_branch2a"
	name: "scale5b_branch2a"
	type: "Scale"
	scale_param {
		bias_term: true
	}
	param {
		name: "scale5b_branch2a_0"
	      lr_mult: 0
	}
	param {
		name: "scale5b_branch2a_1"
	      lr_mult: 0
	}
}

layer {
	top: "res5b_branch2a"
	bottom: "res5b_branch2a"
	name: "res5b_branch2a_relu"
	type: "ReLU"
}

layer {
	bottom: "res5b_branch2a"
	top: "res5b_branch2b"
	name: "res5b_branch2b"
	type: "Convolution"
  deletetop: true
	param {
		name: "res5b_branch2b_0"
               lr_mult: ${MAIN_LR1}
               decay_mult: 1
        }
        convolution_param {
		num_output: 512
		kernel_size: 3
		pad: 4
		dilation: 4
		stride: 1
		bias_term: false
	}
}

layer {
	bottom: "res5b_branch2b"
	top: "res5b_branch2b"
	name: "bn5b_branch2b"
	type: "BatchNorm"
	batch_norm_param {
		use_global_stats: true
	}
	param {
		name: "bn5b_branch2b_0"
	      lr_mult: 0
	}
	param {
		name: "bn5b_branch2b_1"
	      lr_mult: 0
        }
	param {
		name: "bn5b_branch2b_2"
	      lr_mult: 0
        }
}

layer {
	bottom: "res5b_branch2b"
	top: "res5b_branch2b"
	name: "scale5b_branch2b"
	type: "Scale"
	scale_param {
		bias_term: true
	}
	param {
		name: "scale5b_branch2b_0"
	      lr_mult: 0
	}
	param {
		name: "scale5b_branch2b_1"
	      lr_mult: 0
	}
}

layer {
	top: "res5b_branch2b"
	bottom: "res5b_branch2b"
	name: "res5b_branch2b_relu"
	type: "ReLU"
}

layer {
	bottom: "res5b_branch2b"
	top: "res5b_branch2c"
	name: "res5b_branch2c"
	type: "Convolution"
  deletetop: true
	param {
		name: "res5b_branch2c_0"
               lr_mult: ${MAIN_LR1}
               decay_mult: 1
        }
        convolution_param {
		num_output: 2048
		kernel_size: 1
		pad: 0
		stride: 1
		bias_term: false
	}
}

layer {
	bottom: "res5b_branch2c"
	top: "res5b_branch2c"
	name: "bn5b_branch2c"
	type: "BatchNorm"
	batch_norm_param {
		use_global_stats: true
	}
	param {
		name: "bn5b_branch2c_0"
	      lr_mult: 0
	}
	param {
		name: "bn5b_branch2c_1"
	      lr_mult: 0
        }
	param {
		name: "bn5b_branch2c_2"
	      lr_mult: 0
        }
}

layer {
	bottom: "res5b_branch2c"
	top: "res5b_branch2c"
	name: "scale5b_branch2c"
	type: "Scale"
	scale_param {
		bias_term: true
	}
	param {
		name: "scale5b_branch2c_0"
	      lr_mult: 0
	}
	param {
		name: "scale5b_branch2c_1"
	      lr_mult: 0
	}
}

layer {
	bottom: "res5a"
	bottom: "res5b_branch2c"
	top: "res5b"
	name: "res5b"
	type: "Eltwise"
}

layer {
	bottom: "res5b"
	top: "res5b"
	name: "res5b_relu"
	type: "ReLU"
}

layer {
	bottom: "res5b"
	top: "res5c_branch2a"
	name: "res5c_branch2a"
	type: "Convolution"
  deletetop: true
	param {
		name: "res5c_branch2a_0"
               lr_mult: ${MAIN_LR1}
               decay_mult: 1
        }
        convolution_param {
		num_output: 512
		kernel_size: 1
		pad: 0
		stride: 1
		bias_term: false
	}
}

layer {
	bottom: "res5c_branch2a"
	top: "res5c_branch2a"
	name: "bn5c_branch2a"
	type: "BatchNorm"
	batch_norm_param {
		use_global_stats: true
	}
	param {
		name: "bn5c_branch2a_0"
	      lr_mult: 0
	}
	param {
		name: "bn5c_branch2a_1"
	      lr_mult: 0
        }
	param {
		name: "bn5c_branch2a_2"
	      lr_mult: 0
        }
}

layer {
	bottom: "res5c_branch2a"
	top: "res5c_branch2a"
	name: "scale5c_branch2a"
	type: "Scale"
	scale_param {
		bias_term: true
	}
	param {
		name: "scale5c_branch2a_0"
	      lr_mult: 0
	}
	param {
		name: "scale5c_branch2a_1"
	      lr_mult: 0
	}
}

layer {
	top: "res5c_branch2a"
	bottom: "res5c_branch2a"
	name: "res5c_branch2a_relu"
	type: "ReLU"
}

layer {
	bottom: "res5c_branch2a"
	top: "res5c_branch2b"
	name: "res5c_branch2b"
	type: "Convolution"
  deletetop: true
	param {
		name: "res5c_branch2b_0"
               lr_mult: ${MAIN_LR1}
               decay_mult: 1
        }
        convolution_param {
		num_output: 512
		kernel_size: 3
		pad: 4
		dilation: 4
		stride: 1
		bias_term: false
	}
}

layer {
	bottom: "res5c_branch2b"
	top: "res5c_branch2b"
	name: "bn5c_branch2b"
	type: "BatchNorm"
	batch_norm_param {
		use_global_stats: true
	}
	param {
		name: "bn5c_branch2b_0"
	      lr_mult: 0
	}
	param {
		name: "bn5c_branch2b_1"
	      lr_mult: 0
        }
	param {
		name: "bn5c_branch2b_2"
	      lr_mult: 0
        }
}

layer {
	bottom: "res5c_branch2b"
	top: "res5c_branch2b"
	name: "scale5c_branch2b"
	type: "Scale"
	scale_param {
		bias_term: true
	}
	param {
		name: "scale5c_branch2b_0"
	      lr_mult: 0
	}
	param {
		name: "scale5c_branch2b_1"
	      lr_mult: 0
	}
}

layer {
	top: "res5c_branch2b"
	bottom: "res5c_branch2b"
	name: "res5c_branch2b_relu"
	type: "ReLU"
}

layer {
	bottom: "res5c_branch2b"
	top: "res5c_branch2c"
	name: "res5c_branch2c"
	type: "Convolution"
  deletetop: true
	param {
		name: "res5c_branch2c_0"
               lr_mult: ${MAIN_LR1}
               decay_mult: 1
        }
        convolution_param {
		num_output: 2048
		kernel_size: 1
		pad: 0
		stride: 1
		bias_term: false
	}
}

layer {
	bottom: "res5c_branch2c"
	top: "res5c_branch2c"
	name: "bn5c_branch2c"
	type: "BatchNorm"
	batch_norm_param {
		use_global_stats: true
	}
	param {
		name: "bn5c_branch2c_0"
	      lr_mult: 0
	}
	param {
		name: "bn5c_branch2c_1"
	      lr_mult: 0
        }
	param {
		name: "bn5c_branch2c_2"
	      lr_mult: 0
        }
}

layer {
	bottom: "res5c_branch2c"
	top: "res5c_branch2c"
	name: "scale5c_branch2c"
	type: "Scale"
	scale_param {
		bias_term: true
	}
	param {
		name: "scale5c_branch2c_0"
	      lr_mult: 0
	}
	param {
		name: "scale5c_branch2c_1"
	      lr_mult: 0
	}
}

layer {
	bottom: "res5b"
	bottom: "res5c_branch2c"
	top: "res5c"
	name: "res5c"
	type: "Eltwise"
}

layer {
	bottom: "res5c"
	top: "res5c"
	name: "res5c_relu"
	type: "ReLU"
}

###################### resolution 1/2 #####################
layer {
	bottom: "data_res05"
	top: "conv1_res05"
	name: "conv1_res05"
	type: "Convolution"
  deletetop: true
	param {
		name: "conv1_0"
               lr_mult: ${MAIN_LR1}
               decay_mult: 1
        }
        convolution_param {
		num_output: 64
		kernel_size: 7
		pad: 3
		stride: 2
		bias_term: false
	}
}

layer {
	bottom: "conv1_res05"
	top: "conv1_res05"
	name: "bn_conv1_res05"
	type: "BatchNorm"
	batch_norm_param {
		use_global_stats: true
	}
	param {
		name: "bn_conv1_0"
	      lr_mult: 0
	}
	param {
		name: "bn_conv1_1"
	      lr_mult: 0
        }
	param {
		name: "bn_conv1_2"
	      lr_mult: 0
        }
}

layer {
	bottom: "conv1_res05"
	top: "conv1_res05"
	name: "scale_conv1_res05"
	type: "Scale"
	scale_param {
		bias_term: true
	}
	param {
		name: "scale_conv1_0"
	      lr_mult: 0
	}
	param {
		name: "scale_conv1_1"
	      lr_mult: 0
	}
}

layer {
	top: "conv1_res05"
	bottom: "conv1_res05"
	name: "conv1_relu_res05"
	type: "ReLU"
}

layer {
	bottom: "conv1_res05"
	top: "pool1_res05"
	name: "pool1_res05"
	type: "Pooling"
	pooling_param {
		kernel_size: 3
		stride: 2
		pad: 1
		pool: MAX
	}
}

layer {
	bottom: "pool1_res05"
	top: "res2a_branch1_res05"
	name: "res2a_branch1_res05"
	type: "Convolution"
  deletetop: true
	param {
		name: "res2a_branch1_0"
               lr_mult: ${MAIN_LR1}
               decay_mult: 1
        }
        convolution_param {
		num_output: 256
		kernel_size: 1
		pad: 0
		stride: 1
		bias_term: false
	}
}

layer {
	bottom: "res2a_branch1_res05"
	top: "res2a_branch1_res05"
	name: "bn2a_branch1_res05"
	type: "BatchNorm"
	batch_norm_param {
		use_global_stats: true
	}
	param {
		name: "bn2a_branch1_0"
	      lr_mult: 0
	}
	param {
		name: "bn2a_branch1_1"
	      lr_mult: 0
        }
	param {
		name: "bn2a_branch1_2"
	      lr_mult: 0
        }
}

layer {
	bottom: "res2a_branch1_res05"
	top: "res2a_branch1_res05"
	name: "scale2a_branch1_res05"
	type: "Scale"
	scale_param {
		bias_term: true
	}
	param {
		name: "scale2a_branch1_0"
	      lr_mult: 0
	}
	param {
		name: "scale2a_branch1_1"
	      lr_mult: 0
	}
}

layer {
	bottom: "pool1_res05"
	top: "res2a_branch2a_res05"
	name: "res2a_branch2a_res05"
	type: "Convolution"
  deletetop: true
	param {
		name: "res2a_branch2a_0"
               lr_mult: ${MAIN_LR1}
               decay_mult: 1
        }
        convolution_param {
		num_output: 64
		kernel_size: 1
		pad: 0
		stride: 1
		bias_term: false
	}
}

layer {
	bottom: "res2a_branch2a_res05"
	top: "res2a_branch2a_res05"
	name: "bn2a_branch2a_res05"
	type: "BatchNorm"
	batch_norm_param {
		use_global_stats: true
	}
	param {
		name: "bn2a_branch2a_0"
	      lr_mult: 0
	}
	param {
		name: "bn2a_branch2a_1"
	      lr_mult: 0
        }
	param {
		name: "bn2a_branch2a_2"
	      lr_mult: 0
        }
}

layer {
	bottom: "res2a_branch2a_res05"
	top: "res2a_branch2a_res05"
	name: "scale2a_branch2a_res05"
	type: "Scale"
	scale_param {
		bias_term: true
	}
	param {
		name: "scale2a_branch2a_0"
	      lr_mult: 0
	}
	param {
		name: "scale2a_branch2a_1"
	      lr_mult: 0
	}
}

layer {
	top: "res2a_branch2a_res05"
	bottom: "res2a_branch2a_res05"
	name: "res2a_branch2a_relu_res05"
	type: "ReLU"
}

layer {
	bottom: "res2a_branch2a_res05"
	top: "res2a_branch2b_res05"
	name: "res2a_branch2b_res05"
	type: "Convolution"
  deletetop: true
	param {
		name: "res2a_branch2b_0"
               lr_mult: ${MAIN_LR1}
               decay_mult: 1
        }
        convolution_param {
		num_output: 64
		kernel_size: 3
		pad: 1
		stride: 1
		bias_term: false
	}
}

layer {
	bottom: "res2a_branch2b_res05"
	top: "res2a_branch2b_res05"
	name: "bn2a_branch2b_res05"
	type: "BatchNorm"
	batch_norm_param {
		use_global_stats: true
	}
	param {
		name: "bn2a_branch2b_0"
	      lr_mult: 0
	}
	param {
		name: "bn2a_branch2b_1"
	      lr_mult: 0
        }
	param {
		name: "bn2a_branch2b_2"
	      lr_mult: 0
        }
}

layer {
	bottom: "res2a_branch2b_res05"
	top: "res2a_branch2b_res05"
	name: "scale2a_branch2b_res05"
	type: "Scale"
	scale_param {
		bias_term: true
	}
	param {
		name: "scale2a_branch2b_0"
	      lr_mult: 0
	}
	param {
		name: "scale2a_branch2b_1"
	      lr_mult: 0
	}
}

layer {
	top: "res2a_branch2b_res05"
	bottom: "res2a_branch2b_res05"
	name: "res2a_branch2b_relu_res05"
	type: "ReLU"
}

layer {
	bottom: "res2a_branch2b_res05"
	top: "res2a_branch2c_res05"
	name: "res2a_branch2c_res05"
	type: "Convolution"
  deletetop: true
	param {
		name: "res2a_branch2c_0"
               lr_mult: ${MAIN_LR1}
               decay_mult: 1
        }
        convolution_param {
		num_output: 256
		kernel_size: 1
		pad: 0
		stride: 1
		bias_term: false
	}
}

layer {
	bottom: "res2a_branch2c_res05"
	top: "res2a_branch2c_res05"
	name: "bn2a_branch2c_res05"
	type: "BatchNorm"
	batch_norm_param {
		use_global_stats: true
	}
	param {
		name: "bn2a_branch2c_0"
	      lr_mult: 0
	}
	param {
		name: "bn2a_branch2c_1"
	      lr_mult: 0
        }
	param {
		name: "bn2a_branch2c_2"
	      lr_mult: 0
        }
}

layer {
	bottom: "res2a_branch2c_res05"
	top: "res2a_branch2c_res05"
	name: "scale2a_branch2c_res05"
	type: "Scale"
	scale_param {
		bias_term: true
	}
	param {
		name: "scale2a_branch2c_0"
	      lr_mult: 0
	}
	param {
		name: "scale2a_branch2c_1"
	      lr_mult: 0
	}
}

layer {
	bottom: "res2a_branch1_res05"
	bottom: "res2a_branch2c_res05"
	top: "res2a_res05"
	name: "res2a_res05"
	type: "Eltwise"
}

layer {
	bottom: "res2a_res05"
	top: "res2a_res05"
	name: "res2a_relu_res05"
	type: "ReLU"
}

layer {
	bottom: "res2a_res05"
	top: "res2b_branch2a_res05"
	name: "res2b_branch2a_res05"
	type: "Convolution"
  deletetop: true
	param {
		name: "res2b_branch2a_0"
               lr_mult: ${MAIN_LR1}
               decay_mult: 1
        }
        convolution_param {
		num_output: 64
		kernel_size: 1
		pad: 0
		stride: 1
		bias_term: false
	}
}

layer {
	bottom: "res2b_branch2a_res05"
	top: "res2b_branch2a_res05"
	name: "bn2b_branch2a_res05"
	type: "BatchNorm"
	batch_norm_param {
		use_global_stats: true
	}
	param {
		name: "bn2b_branch2a_0"
	      lr_mult: 0
	}
	param {
		name: "bn2b_branch2a_1"
	      lr_mult: 0
        }
	param {
		name: "bn2b_branch2a_2"
	      lr_mult: 0
        }
}

layer {
	bottom: "res2b_branch2a_res05"
	top: "res2b_branch2a_res05"
	name: "scale2b_branch2a_res05"
	type: "Scale"
	scale_param {
		bias_term: true
	}
	param {
		name: "scale2b_branch2a_0"
	      lr_mult: 0
	}
	param {
		name: "scale2b_branch2a_1"
	      lr_mult: 0
	}
}

layer {
	top: "res2b_branch2a_res05"
	bottom: "res2b_branch2a_res05"
	name: "res2b_branch2a_relu_res05"
	type: "ReLU"
}

layer {
	bottom: "res2b_branch2a_res05"
	top: "res2b_branch2b_res05"
	name: "res2b_branch2b_res05"
	type: "Convolution"
  deletetop: true
	param {
		name: "res2b_branch2b_0"
               lr_mult: ${MAIN_LR1}
               decay_mult: 1
        }
        convolution_param {
		num_output: 64
		kernel_size: 3
		pad: 1
		stride: 1
		bias_term: false
	}
}

layer {
	bottom: "res2b_branch2b_res05"
	top: "res2b_branch2b_res05"
	name: "bn2b_branch2b_res05"
	type: "BatchNorm"
	batch_norm_param {
		use_global_stats: true
	}
	param {
		name: "bn2b_branch2b_0"
	      lr_mult: 0
	}
	param {
		name: "bn2b_branch2b_1"
	      lr_mult: 0
        }
	param {
		name: "bn2b_branch2b_2"
	      lr_mult: 0
        }
}

layer {
	bottom: "res2b_branch2b_res05"
	top: "res2b_branch2b_res05"
	name: "scale2b_branch2b_res05"
	type: "Scale"
	scale_param {
		bias_term: true
	}
	param {
		name: "scale2b_branch2b_0"
	      lr_mult: 0
	}
	param {
		name: "scale2b_branch2b_1"
	      lr_mult: 0
	}
}

layer {
	top: "res2b_branch2b_res05"
	bottom: "res2b_branch2b_res05"
	name: "res2b_branch2b_relu_res05"
	type: "ReLU"
}

layer {
	bottom: "res2b_branch2b_res05"
	top: "res2b_branch2c_res05"
	name: "res2b_branch2c_res05"
	type: "Convolution"
  deletetop: true
	param {
		name: "res2b_branch2c_0"
               lr_mult: ${MAIN_LR1}
               decay_mult: 1
        }
        convolution_param {
		num_output: 256
		kernel_size: 1
		pad: 0
		stride: 1
		bias_term: false
	}
}

layer {
	bottom: "res2b_branch2c_res05"
	top: "res2b_branch2c_res05"
	name: "bn2b_branch2c_res05"
	type: "BatchNorm"
	batch_norm_param {
		use_global_stats: true
	}
	param {
		name: "bn2b_branch2c_0"
	      lr_mult: 0
	}
	param {
		name: "bn2b_branch2c_1"
	      lr_mult: 0
        }
	param {
		name: "bn2b_branch2c_2"
	      lr_mult: 0
        }
}

layer {
	bottom: "res2b_branch2c_res05"
	top: "res2b_branch2c_res05"
	name: "scale2b_branch2c_res05"
	type: "Scale"
	scale_param {
		bias_term: true
	}
	param {
		name: "scale2b_branch2c_0"
	      lr_mult: 0
	}
	param {
		name: "scale2b_branch2c_1"
	      lr_mult: 0
	}
}

layer {
	bottom: "res2a_res05"
	bottom: "res2b_branch2c_res05"
	top: "res2b_res05"
	name: "res2b_res05"
	type: "Eltwise"
}

layer {
	bottom: "res2b_res05"
	top: "res2b_res05"
	name: "res2b_relu_res05"
	type: "ReLU"
}

layer {
	bottom: "res2b_res05"
	top: "res2c_branch2a_res05"
	name: "res2c_branch2a_res05"
	type: "Convolution"
  deletetop: true
	param {
		name: "res2c_branch2a_0"
               lr_mult: ${MAIN_LR1}
               decay_mult: 1
        }
        convolution_param {
		num_output: 64
		kernel_size: 1
		pad: 0
		stride: 1
		bias_term: false
	}
}

layer {
	bottom: "res2c_branch2a_res05"
	top: "res2c_branch2a_res05"
	name: "bn2c_branch2a_res05"
	type: "BatchNorm"
	batch_norm_param {
		use_global_stats: true
	}
	param {
		name: "bn2c_branch2a_0"
	      lr_mult: 0
	}
	param {
		name: "bn2c_branch2a_1"
	      lr_mult: 0
        }
	param {
		name: "bn2c_branch2a_2"
	      lr_mult: 0
        }
}

layer {
	bottom: "res2c_branch2a_res05"
	top: "res2c_branch2a_res05"
	name: "scale2c_branch2a_res05"
	type: "Scale"
	scale_param {
		bias_term: true
	}
	param {
		name: "scale2c_branch2a_0"
	      lr_mult: 0
	}
	param {
		name: "scale2c_branch2a_1"
	      lr_mult: 0
	}
}

layer {
	top: "res2c_branch2a_res05"
	bottom: "res2c_branch2a_res05"
	name: "res2c_branch2a_relu_res05"
	type: "ReLU"
}

layer {
	bottom: "res2c_branch2a_res05"
	top: "res2c_branch2b_res05"
	name: "res2c_branch2b_res05"
	type: "Convolution"
  deletetop: true
	param {
		name: "res2c_branch2b_0"
               lr_mult: ${MAIN_LR1}
               decay_mult: 1
        }
        convolution_param {
		num_output: 64
		kernel_size: 3
		pad: 1
		stride: 1
		bias_term: false
	}
}

layer {
	bottom: "res2c_branch2b_res05"
	top: "res2c_branch2b_res05"
	name: "bn2c_branch2b_res05"
	type: "BatchNorm"
	batch_norm_param {
		use_global_stats: true
	}
	param {
		name: "bn2c_branch2b_0"
	      lr_mult: 0
	}
	param {
		name: "bn2c_branch2b_1"
	      lr_mult: 0
        }
	param {
		name: "bn2c_branch2b_2"
	      lr_mult: 0
        }
}

layer {
	bottom: "res2c_branch2b_res05"
	top: "res2c_branch2b_res05"
	name: "scale2c_branch2b_res05"
	type: "Scale"
	scale_param {
		bias_term: true
	}
	param {
		name: "scale2c_branch2b_0"
	      lr_mult: 0
	}
	param {
		name: "scale2c_branch2b_1"
	      lr_mult: 0
	}
}

layer {
	top: "res2c_branch2b_res05"
	bottom: "res2c_branch2b_res05"
	name: "res2c_branch2b_relu_res05"
	type: "ReLU"
}

layer {
	bottom: "res2c_branch2b_res05"
	top: "res2c_branch2c_res05"
	name: "res2c_branch2c_res05"
	type: "Convolution"
  deletetop: true
	param {
		name: "res2c_branch2c_0"
               lr_mult: ${MAIN_LR1}
               decay_mult: 1
        }
        convolution_param {
		num_output: 256
		kernel_size: 1
		pad: 0
		stride: 1
		bias_term: false
	}
}

layer {
	bottom: "res2c_branch2c_res05"
	top: "res2c_branch2c_res05"
	name: "bn2c_branch2c_res05"
	type: "BatchNorm"
	batch_norm_param {
		use_global_stats: true
	}
	param {
		name: "bn2c_branch2c_0"
	      lr_mult: 0
	}
	param {
		name: "bn2c_branch2c_1"
	      lr_mult: 0
        }
	param {
		name: "bn2c_branch2c_2"
	      lr_mult: 0
        }
}

layer {
	bottom: "res2c_branch2c_res05"
	top: "res2c_branch2c_res05"
	name: "scale2c_branch2c_res05"
	type: "Scale"
	scale_param {
		bias_term: true
	}
	param {
		name: "scale2c_branch2c_0"
	      lr_mult: 0
	}
	param {
		name: "scale2c_branch2c_1"
	      lr_mult: 0
	}
}

layer {
	bottom: "res2b_res05"
	bottom: "res2c_branch2c_res05"
	top: "res2c_res05"
	name: "res2c_res05"
	type: "Eltwise"
}

layer {
	bottom: "res2c_res05"
	top: "res2c_res05"
	name: "res2c_relu_res05"
	type: "ReLU"
}

layer {
	bottom: "res2c_res05"
	top: "res3a_branch1_res05"
	name: "res3a_branch1_res05"
	type: "Convolution"
  deletetop: true
	param {
		name: "res3a_branch1_0"
               lr_mult: ${MAIN_LR1}
               decay_mult: 1
        }
        convolution_param {
		num_output: 512
		kernel_size: 1
		pad: 0
		stride: 2
		bias_term: false
	}
}

layer {
	bottom: "res3a_branch1_res05"
	top: "res3a_branch1_res05"
	name: "bn3a_branch1_res05"
	type: "BatchNorm"
	batch_norm_param {
		use_global_stats: true
	}
	param {
		name: "bn3a_branch1_0"
	      lr_mult: 0
	}
	param {
		name: "bn3a_branch1_1"
	      lr_mult: 0
        }
	param {
		name: "bn3a_branch1_2"
	      lr_mult: 0
        }
}

layer {
	bottom: "res3a_branch1_res05"
	top: "res3a_branch1_res05"
	name: "scale3a_branch1_res05"
	type: "Scale"
	scale_param {
		bias_term: true
	}
	param {
		name: "scale3a_branch1_0"
	      lr_mult: 0
	}
	param {
		name: "scale3a_branch1_1"
	      lr_mult: 0
	}
}

layer {
	bottom: "res2c_res05"
	top: "res3a_branch2a_res05"
	name: "res3a_branch2a_res05"
	type: "Convolution"
  deletetop: true
	param {
		name: "res3a_branch2a_0"
               lr_mult: ${MAIN_LR1}
               decay_mult: 1
        }
        convolution_param {
		num_output: 128
		kernel_size: 1
		pad: 0
		stride: 2
		bias_term: false
	}
}

layer {
	bottom: "res3a_branch2a_res05"
	top: "res3a_branch2a_res05"
	name: "bn3a_branch2a_res05"
	type: "BatchNorm"
	batch_norm_param {
		use_global_stats: true
	}
	param {
		name: "bn3a_branch2a_0"
	      lr_mult: 0
	}
	param {
		name: "bn3a_branch2a_1"
	      lr_mult: 0
        }
	param {
		name: "bn3a_branch2a_2"
	      lr_mult: 0
        }
}

layer {
	bottom: "res3a_branch2a_res05"
	top: "res3a_branch2a_res05"
	name: "scale3a_branch2a_res05"
	type: "Scale"
	scale_param {
		bias_term: true
	}
	param {
		name: "scale3a_branch2a_0"
	      lr_mult: 0
	}
	param {
		name: "scale3a_branch2a_1"
	      lr_mult: 0
	}
}

layer {
	top: "res3a_branch2a_res05"
	bottom: "res3a_branch2a_res05"
	name: "res3a_branch2a_relu_res05"
	type: "ReLU"
}

layer {
	bottom: "res3a_branch2a_res05"
	top: "res3a_branch2b_res05"
	name: "res3a_branch2b_res05"
	type: "Convolution"
  deletetop: true
	param {
		name: "res3a_branch2b_0"
               lr_mult: ${MAIN_LR1}
               decay_mult: 1
        }
        convolution_param {
		num_output: 128
		kernel_size: 3
		pad: 1
		stride: 1
		bias_term: false
	}
}

layer {
	bottom: "res3a_branch2b_res05"
	top: "res3a_branch2b_res05"
	name: "bn3a_branch2b_res05"
	type: "BatchNorm"
	batch_norm_param {
		use_global_stats: true
	}
	param {
		name: "bn3a_branch2b_0"
	      lr_mult: 0
	}
	param {
		name: "bn3a_branch2b_1"
	      lr_mult: 0
        }
	param {
		name: "bn3a_branch2b_2"
	      lr_mult: 0
        }
}

layer {
	bottom: "res3a_branch2b_res05"
	top: "res3a_branch2b_res05"
	name: "scale3a_branch2b_res05"
	type: "Scale"
	scale_param {
		bias_term: true
	}
	param {
		name: "scale3a_branch2b_0"
	      lr_mult: 0
	}
	param {
		name: "scale3a_branch2b_1"
	      lr_mult: 0
	}
}

layer {
	top: "res3a_branch2b_res05"
	bottom: "res3a_branch2b_res05"
	name: "res3a_branch2b_relu_res05"
	type: "ReLU"
}

layer {
	bottom: "res3a_branch2b_res05"
	top: "res3a_branch2c_res05"
	name: "res3a_branch2c_res05"
	type: "Convolution"
  deletetop: true
	param {
		name: "res3a_branch2c_0"
               lr_mult: ${MAIN_LR1}
               decay_mult: 1
        }
        convolution_param {
		num_output: 512
		kernel_size: 1
		pad: 0
		stride: 1
		bias_term: false
	}
}

layer {
	bottom: "res3a_branch2c_res05"
	top: "res3a_branch2c_res05"
	name: "bn3a_branch2c_res05"
	type: "BatchNorm"
	batch_norm_param {
		use_global_stats: true
	}
	param {
		name: "bn3a_branch2c_0"
	      lr_mult: 0
	}
	param {
		name: "bn3a_branch2c_1"
	      lr_mult: 0
        }
	param {
		name: "bn3a_branch2c_2"
	      lr_mult: 0
        }
}

layer {
	bottom: "res3a_branch2c_res05"
	top: "res3a_branch2c_res05"
	name: "scale3a_branch2c_res05"
	type: "Scale"
	scale_param {
		bias_term: true
	}
	param {
		name: "scale3a_branch2c_0"
	      lr_mult: 0
	}
	param {
		name: "scale3a_branch2c_1"
	      lr_mult: 0
	}
}

layer {
	bottom: "res3a_branch1_res05"
	bottom: "res3a_branch2c_res05"
	top: "res3a_res05"
	name: "res3a_res05"
	type: "Eltwise"
}

layer {
	bottom: "res3a_res05"
	top: "res3a_res05"
	name: "res3a_relu_res05"
	type: "ReLU"
}

layer {
	bottom: "res3a_res05"
	top: "res3b1_branch2a_res05"
	name: "res3b1_branch2a_res05"
	type: "Convolution"
  deletetop: true
	param {
		name: "res3b1_branch2a_0"
               lr_mult: ${MAIN_LR1}
               decay_mult: 1
        }
        convolution_param {
		num_output: 128
		kernel_size: 1
		pad: 0
		stride: 1
		bias_term: false
	}
}

layer {
	bottom: "res3b1_branch2a_res05"
	top: "res3b1_branch2a_res05"
	name: "bn3b1_branch2a_res05"
	type: "BatchNorm"
	batch_norm_param {
		use_global_stats: true
	}
	param {
		name: "bn3b1_branch2a_0"
	      lr_mult: 0
	}
	param {
		name: "bn3b1_branch2a_1"
	      lr_mult: 0
        }
	param {
		name: "bn3b1_branch2a_2"
	      lr_mult: 0
        }
}

layer {
	bottom: "res3b1_branch2a_res05"
	top: "res3b1_branch2a_res05"
	name: "scale3b1_branch2a_res05"
	type: "Scale"
	scale_param {
		bias_term: true
	}
	param {
		name: "scale3b1_branch2a_0"
	      lr_mult: 0
	}
	param {
		name: "scale3b1_branch2a_1"
	      lr_mult: 0
	}
}

layer {
	top: "res3b1_branch2a_res05"
	bottom: "res3b1_branch2a_res05"
	name: "res3b1_branch2a_relu_res05"
	type: "ReLU"
}

layer {
	bottom: "res3b1_branch2a_res05"
	top: "res3b1_branch2b_res05"
	name: "res3b1_branch2b_res05"
	type: "Convolution"
  deletetop: true
	param {
		name: "res3b1_branch2b_0"
               lr_mult: ${MAIN_LR1}
               decay_mult: 1
        }
        convolution_param {
		num_output: 128
		kernel_size: 3
		pad: 1
		stride: 1
		bias_term: false
	}
}

layer {
	bottom: "res3b1_branch2b_res05"
	top: "res3b1_branch2b_res05"
	name: "bn3b1_branch2b_res05"
	type: "BatchNorm"
	batch_norm_param {
		use_global_stats: true
	}
	param {
		name: "bn3b1_branch2b_0"
	      lr_mult: 0
	}
	param {
		name: "bn3b1_branch2b_1"
	      lr_mult: 0
        }
	param {
		name: "bn3b1_branch2b_2"
	      lr_mult: 0
        }
}

layer {
	bottom: "res3b1_branch2b_res05"
	top: "res3b1_branch2b_res05"
	name: "scale3b1_branch2b_res05"
	type: "Scale"
	scale_param {
		bias_term: true
	}
	param {
		name: "scale3b1_branch2b_0"
	      lr_mult: 0
	}
	param {
		name: "scale3b1_branch2b_1"
	      lr_mult: 0
	}
}

layer {
	top: "res3b1_branch2b_res05"
	bottom: "res3b1_branch2b_res05"
	name: "res3b1_branch2b_relu_res05"
	type: "ReLU"
}

layer {
	bottom: "res3b1_branch2b_res05"
	top: "res3b1_branch2c_res05"
	name: "res3b1_branch2c_res05"
	type: "Convolution"
  deletetop: true
	param {
		name: "res3b1_branch2c_0"
               lr_mult: ${MAIN_LR1}
               decay_mult: 1
        }
        convolution_param {
		num_output: 512
		kernel_size: 1
		pad: 0
		stride: 1
		bias_term: false
	}
}

layer {
	bottom: "res3b1_branch2c_res05"
	top: "res3b1_branch2c_res05"
	name: "bn3b1_branch2c_res05"
	type: "BatchNorm"
	batch_norm_param {
		use_global_stats: true
	}
	param {
		name: "bn3b1_branch2c_0"
	      lr_mult: 0
	}
	param {
		name: "bn3b1_branch2c_1"
	      lr_mult: 0
        }
	param {
		name: "bn3b1_branch2c_2"
	      lr_mult: 0
        }
}

layer {
	bottom: "res3b1_branch2c_res05"
	top: "res3b1_branch2c_res05"
	name: "scale3b1_branch2c_res05"
	type: "Scale"
	scale_param {
		bias_term: true
	}
	param {
		name: "scale3b1_branch2c_0"
	      lr_mult: 0
	}
	param {
		name: "scale3b1_branch2c_1"
	      lr_mult: 0
	}
}

layer {
	bottom: "res3a_res05"
	bottom: "res3b1_branch2c_res05"
	top: "res3b1_res05"
	name: "res3b1_res05"
	type: "Eltwise"
}

layer {
	bottom: "res3b1_res05"
	top: "res3b1_res05"
	name: "res3b1_relu_res05"
	type: "ReLU"
}

layer {
	bottom: "res3b1_res05"
	top: "res3b2_branch2a_res05"
	name: "res3b2_branch2a_res05"
	type: "Convolution"
  deletetop: true
	param {
		name: "res3b2_branch2a_0"
               lr_mult: ${MAIN_LR1}
               decay_mult: 1
        }
        convolution_param {
		num_output: 128
		kernel_size: 1
		pad: 0
		stride: 1
		bias_term: false
	}
}

layer {
	bottom: "res3b2_branch2a_res05"
	top: "res3b2_branch2a_res05"
	name: "bn3b2_branch2a_res05"
	type: "BatchNorm"
	batch_norm_param {
		use_global_stats: true
	}
	param {
		name: "bn3b2_branch2a_0"
	      lr_mult: 0
	}
	param {
		name: "bn3b2_branch2a_1"
	      lr_mult: 0
        }
	param {
		name: "bn3b2_branch2a_2"
	      lr_mult: 0
        }
}

layer {
	bottom: "res3b2_branch2a_res05"
	top: "res3b2_branch2a_res05"
	name: "scale3b2_branch2a_res05"
	type: "Scale"
	scale_param {
		bias_term: true
	}
	param {
		name: "scale3b2_branch2a_0"
	      lr_mult: 0
	}
	param {
		name: "scale3b2_branch2a_1"
	      lr_mult: 0
	}
}

layer {
	top: "res3b2_branch2a_res05"
	bottom: "res3b2_branch2a_res05"
	name: "res3b2_branch2a_relu_res05"
	type: "ReLU"
}

layer {
	bottom: "res3b2_branch2a_res05"
	top: "res3b2_branch2b_res05"
	name: "res3b2_branch2b_res05"
	type: "Convolution"
  deletetop: true
	param {
		name: "res3b2_branch2b_0"
               lr_mult: ${MAIN_LR1}
               decay_mult: 1
        }
        convolution_param {
		num_output: 128
		kernel_size: 3
		pad: 1
		stride: 1
		bias_term: false
	}
}

layer {
	bottom: "res3b2_branch2b_res05"
	top: "res3b2_branch2b_res05"
	name: "bn3b2_branch2b_res05"
	type: "BatchNorm"
	batch_norm_param {
		use_global_stats: true
	}
	param {
		name: "bn3b2_branch2b_0"
	      lr_mult: 0
	}
	param {
		name: "bn3b2_branch2b_1"
	      lr_mult: 0
        }
	param {
		name: "bn3b2_branch2b_2"
	      lr_mult: 0
        }
}

layer {
	bottom: "res3b2_branch2b_res05"
	top: "res3b2_branch2b_res05"
	name: "scale3b2_branch2b_res05"
	type: "Scale"
	scale_param {
		bias_term: true
	}
	param {
		name: "scale3b2_branch2b_0"
	      lr_mult: 0
	}
	param {
		name: "scale3b2_branch2b_1"
	      lr_mult: 0
	}
}

layer {
	top: "res3b2_branch2b_res05"
	bottom: "res3b2_branch2b_res05"
	name: "res3b2_branch2b_relu_res05"
	type: "ReLU"
}

layer {
	bottom: "res3b2_branch2b_res05"
	top: "res3b2_branch2c_res05"
	name: "res3b2_branch2c_res05"
	type: "Convolution"
  deletetop: true
	param {
		name: "res3b2_branch2c_0"
               lr_mult: ${MAIN_LR1}
               decay_mult: 1
        }
        convolution_param {
		num_output: 512
		kernel_size: 1
		pad: 0
		stride: 1
		bias_term: false
	}
}

layer {
	bottom: "res3b2_branch2c_res05"
	top: "res3b2_branch2c_res05"
	name: "bn3b2_branch2c_res05"
	type: "BatchNorm"
	batch_norm_param {
		use_global_stats: true
	}
	param {
		name: "bn3b2_branch2c_0"
	      lr_mult: 0
	}
	param {
		name: "bn3b2_branch2c_1"
	      lr_mult: 0
        }
	param {
		name: "bn3b2_branch2c_2"
	      lr_mult: 0
        }
}

layer {
	bottom: "res3b2_branch2c_res05"
	top: "res3b2_branch2c_res05"
	name: "scale3b2_branch2c_res05"
	type: "Scale"
	scale_param {
		bias_term: true
	}
	param {
		name: "scale3b2_branch2c_0"
	      lr_mult: 0
	}
	param {
		name: "scale3b2_branch2c_1"
	      lr_mult: 0
	}
}

layer {
	bottom: "res3b1_res05"
	bottom: "res3b2_branch2c_res05"
	top: "res3b2_res05"
	name: "res3b2_res05"
	type: "Eltwise"
}

layer {
	bottom: "res3b2_res05"
	top: "res3b2_res05"
	name: "res3b2_relu_res05"
	type: "ReLU"
}

layer {
	bottom: "res3b2_res05"
	top: "res3b3_branch2a_res05"
	name: "res3b3_branch2a_res05"
	type: "Convolution"
  deletetop: true
	param {
		name: "res3b3_branch2a_0"
               lr_mult: ${MAIN_LR1}
               decay_mult: 1
        }
        convolution_param {
		num_output: 128
		kernel_size: 1
		pad: 0
		stride: 1
		bias_term: false
	}
}

layer {
	bottom: "res3b3_branch2a_res05"
	top: "res3b3_branch2a_res05"
	name: "bn3b3_branch2a_res05"
	type: "BatchNorm"
	batch_norm_param {
		use_global_stats: true
	}
	param {
		name: "bn3b3_branch2a_0"
	      lr_mult: 0
	}
	param {
		name: "bn3b3_branch2a_1"
	      lr_mult: 0
        }
	param {
		name: "bn3b3_branch2a_2"
	      lr_mult: 0
        }
}

layer {
…
	param {
		name: "bn4b15_branch2c_2"
	      lr_mult: 0
        }
}

layer {
	bottom: "res4b15_branch2c_res075"
	top: "res4b15_branch2c_res075"
	name: "scale4b15_branch2c_res075"
	type: "Scale"
	scale_param {
		bias_term: true
	}
	param {
		name: "scale4b15_branch2c_0"
	      lr_mult: 0
	}
	param {
		name: "scale4b15_branch2c_1"
	      lr_mult: 0
	}
}

layer {
	bottom: "res4b14_res075"
	bottom: "res4b15_branch2c_res075"
	top: "res4b15_res075"
	name: "res4b15_res075"
	type: "Eltwise"
}

layer {
	bottom: "res4b15_res075"
	top: "res4b15_res075"
	name: "res4b15_relu_res075"
	type: "ReLU"
}

layer {
	bottom: "res4b15_res075"
	top: "res4b16_branch2a_res075"
	name: "res4b16_branch2a_res075"
	type: "Convolution"
  deletetop: true
	param {
		name: "res4b16_branch2a_0"
               lr_mult: ${MAIN_LR1}
               decay_mult: 1
        }
        convolution_param {
		num_output: 256
		kernel_size: 1
		pad: 0
		stride: 1
		bias_term: false
	}
}

layer {
	bottom: "res4b16_branch2a_res075"
	top: "res4b16_branch2a_res075"
	name: "bn4b16_branch2a_res075"
	type: "BatchNorm"
	batch_norm_param {
		use_global_stats: true
	}
	param {
		name: "bn4b16_branch2a_0"
	      lr_mult: 0
	}
	param {
		name: "bn4b16_branch2a_1"
	      lr_mult: 0
        }
	param {
		name: "bn4b16_branch2a_2"
	      lr_mult: 0
        }
}

layer {
	bottom: "res4b16_branch2a_res075"
	top: "res4b16_branch2a_res075"
	name: "scale4b16_branch2a_res075"
	type: "Scale"
	scale_param {
		bias_term: true
	}
	param {
		name: "scale4b16_branch2a_0"
	      lr_mult: 0
	}
	param {
		name: "scale4b16_branch2a_1"
	      lr_mult: 0
	}
}

layer {
	top: "res4b16_branch2a_res075"
	bottom: "res4b16_branch2a_res075"
	name: "res4b16_branch2a_relu_res075"
	type: "ReLU"
}

layer {
	bottom: "res4b16_branch2a_res075"
	top: "res4b16_branch2b_res075"
	name: "res4b16_branch2b_res075"
	type: "Convolution"
  deletetop: true
	param {
		name: "res4b16_branch2b_0"
               lr_mult: ${MAIN_LR1}
               decay_mult: 1
        }
        convolution_param {
		num_output: 256
		kernel_size: 3
		pad: 2
		dilation: 2
		stride: 1
		bias_term: false
	}
}

layer {
	bottom: "res4b16_branch2b_res075"
	top: "res4b16_branch2b_res075"
	name: "bn4b16_branch2b_res075"
	type: "BatchNorm"
	batch_norm_param {
		use_global_stats: true
	}
	param {
		name: "bn4b16_branch2b_0"
	      lr_mult: 0
	}
	param {
		name: "bn4b16_branch2b_1"
	      lr_mult: 0
        }
	param {
		name: "bn4b16_branch2b_2"
	      lr_mult: 0
        }
}

layer {
	bottom: "res4b16_branch2b_res075"
	top: "res4b16_branch2b_res075"
	name: "scale4b16_branch2b_res075"
	type: "Scale"
	scale_param {
		bias_term: true
	}
	param {
		name: "scale4b16_branch2b_0"
	      lr_mult: 0
	}
	param {
		name: "scale4b16_branch2b_1"
	      lr_mult: 0
	}
}

layer {
	top: "res4b16_branch2b_res075"
	bottom: "res4b16_branch2b_res075"
	name: "res4b16_branch2b_relu_res075"
	type: "ReLU"
}

layer {
	bottom: "res4b16_branch2b_res075"
	top: "res4b16_branch2c_res075"
	name: "res4b16_branch2c_res075"
	type: "Convolution"
  deletetop: true
	param {
		name: "res4b16_branch2c_0"
               lr_mult: ${MAIN_LR1}
               decay_mult: 1
        }
        convolution_param {
		num_output: 1024
		kernel_size: 1
		pad: 0
		stride: 1
		bias_term: false
	}
}

layer {
	bottom: "res4b16_branch2c_res075"
	top: "res4b16_branch2c_res075"
	name: "bn4b16_branch2c_res075"
	type: "BatchNorm"
	batch_norm_param {
		use_global_stats: true
	}
	param {
		name: "bn4b16_branch2c_0"
	      lr_mult: 0
	}
	param {
		name: "bn4b16_branch2c_1"
	      lr_mult: 0
        }
	param {
		name: "bn4b16_branch2c_2"
	      lr_mult: 0
        }
}

layer {
	bottom: "res4b16_branch2c_res075"
	top: "res4b16_branch2c_res075"
	name: "scale4b16_branch2c_res075"
	type: "Scale"
	scale_param {
		bias_term: true
	}
	param {
		name: "scale4b16_branch2c_0"
	      lr_mult: 0
	}
	param {
		name: "scale4b16_branch2c_1"
	      lr_mult: 0
	}
}

layer {
	bottom: "res4b15_res075"
	bottom: "res4b16_branch2c_res075"
	top: "res4b16_res075"
	name: "res4b16_res075"
	type: "Eltwise"
}

layer {
	bottom: "res4b16_res075"
	top: "res4b16_res075"
	name: "res4b16_relu_res075"
	type: "ReLU"
}

layer {
	bottom: "res4b16_res075"
	top: "res4b17_branch2a_res075"
	name: "res4b17_branch2a_res075"
	type: "Convolution"
  deletetop: true
	param {
		name: "res4b17_branch2a_0"
               lr_mult: ${MAIN_LR1}
               decay_mult: 1
        }
        convolution_param {
		num_output: 256
		kernel_size: 1
		pad: 0
		stride: 1
		bias_term: false
	}
}

layer {
	bottom: "res4b17_branch2a_res075"
	top: "res4b17_branch2a_res075"
	name: "bn4b17_branch2a_res075"
	type: "BatchNorm"
	batch_norm_param {
		use_global_stats: true
	}
	param {
		name: "bn4b17_branch2a_0"
	      lr_mult: 0
	}
	param {
		name: "bn4b17_branch2a_1"
	      lr_mult: 0
        }
	param {
		name: "bn4b17_branch2a_2"
	      lr_mult: 0
        }
}

layer {
	bottom: "res4b17_branch2a_res075"
	top: "res4b17_branch2a_res075"
	name: "scale4b17_branch2a_res075"
	type: "Scale"
	scale_param {
		bias_term: true
	}
	param {
		name: "scale4b17_branch2a_0"
	      lr_mult: 0
	}
	param {
		name: "scale4b17_branch2a_1"
	      lr_mult: 0
	}
}

layer {
	top: "res4b17_branch2a_res075"
	bottom: "res4b17_branch2a_res075"
	name: "res4b17_branch2a_relu_res075"
	type: "ReLU"
}

layer {
	bottom: "res4b17_branch2a_res075"
	top: "res4b17_branch2b_res075"
	name: "res4b17_branch2b_res075"
	type: "Convolution"
  deletetop: true
	param {
		name: "res4b17_branch2b_0"
               lr_mult: ${MAIN_LR1}
               decay_mult: 1
        }
        convolution_param {
		num_output: 256
		kernel_size: 3
		pad: 2
		dilation: 2
		stride: 1
		bias_term: false
	}
}

layer {
	bottom: "res4b17_branch2b_res075"
	top: "res4b17_branch2b_res075"
	name: "bn4b17_branch2b_res075"
	type: "BatchNorm"
	batch_norm_param {
		use_global_stats: true
	}
	param {
		name: "bn4b17_branch2b_0"
	      lr_mult: 0
	}
	param {
		name: "bn4b17_branch2b_1"
	      lr_mult: 0
        }
	param {
		name: "bn4b17_branch2b_2"
	      lr_mult: 0
        }
}

layer {
	bottom: "res4b17_branch2b_res075"
	top: "res4b17_branch2b_res075"
	name: "scale4b17_branch2b_res075"
	type: "Scale"
	scale_param {
		bias_term: true
	}
	param {
		name: "scale4b17_branch2b_0"
	      lr_mult: 0
	}
	param {
		name: "scale4b17_branch2b_1"
	      lr_mult: 0
	}
}

layer {
	top: "res4b17_branch2b_res075"
	bottom: "res4b17_branch2b_res075"
	name: "res4b17_branch2b_relu_res075"
	type: "ReLU"
}

layer {
	bottom: "res4b17_branch2b_res075"
	top: "res4b17_branch2c_res075"
	name: "res4b17_branch2c_res075"
	type: "Convolution"
  deletetop: true
	param {
		name: "res4b17_branch2c_0"
               lr_mult: ${MAIN_LR1}
               decay_mult: 1
        }
        convolution_param {
		num_output: 1024
		kernel_size: 1
		pad: 0
		stride: 1
		bias_term: false
	}
}

layer {
	bottom: "res4b17_branch2c_res075"
	top: "res4b17_branch2c_res075"
	name: "bn4b17_branch2c_res075"
	type: "BatchNorm"
	batch_norm_param {
		use_global_stats: true
	}
	param {
		name: "bn4b17_branch2c_0"
	      lr_mult: 0
	}
	param {
		name: "bn4b17_branch2c_1"
	      lr_mult: 0
        }
	param {
		name: "bn4b17_branch2c_2"
	      lr_mult: 0
        }
}

layer {
	bottom: "res4b17_branch2c_res075"
	top: "res4b17_branch2c_res075"
	name: "scale4b17_branch2c_res075"
	type: "Scale"
	scale_param {
		bias_term: true
	}
	param {
		name: "scale4b17_branch2c_0"
	      lr_mult: 0
	}
	param {
		name: "scale4b17_branch2c_1"
	      lr_mult: 0
	}
}

layer {
	bottom: "res4b16_res075"
	bottom: "res4b17_branch2c_res075"
	top: "res4b17_res075"
	name: "res4b17_res075"
	type: "Eltwise"
}

layer {
	bottom: "res4b17_res075"
	top: "res4b17_res075"
	name: "res4b17_relu_res075"
	type: "ReLU"
}

layer {
	bottom: "res4b17_res075"
	top: "res4b18_branch2a_res075"
	name: "res4b18_branch2a_res075"
	type: "Convolution"
  deletetop: true
	param {
		name: "res4b18_branch2a_0"
               lr_mult: ${MAIN_LR1}
               decay_mult: 1
        }
        convolution_param {
		num_output: 256
		kernel_size: 1
		pad: 0
		stride: 1
		bias_term: false
	}
}

layer {
	bottom: "res4b18_branch2a_res075"
	top: "res4b18_branch2a_res075"
	name: "bn4b18_branch2a_res075"
	type: "BatchNorm"
	batch_norm_param {
		use_global_stats: true
	}
	param {
		name: "bn4b18_branch2a_0"
	      lr_mult: 0
	}
	param {
		name: "bn4b18_branch2a_1"
	      lr_mult: 0
        }
	param {
		name: "bn4b18_branch2a_2"
	      lr_mult: 0
        }
}

layer {
	bottom: "res4b18_branch2a_res075"
	top: "res4b18_branch2a_res075"
	name: "scale4b18_branch2a_res075"
	type: "Scale"
	scale_param {
		bias_term: true
	}
	param {
		name: "scale4b18_branch2a_0"
	      lr_mult: 0
	}
	param {
		name: "scale4b18_branch2a_1"
	      lr_mult: 0
	}
}

layer {
	top: "res4b18_branch2a_res075"
	bottom: "res4b18_branch2a_res075"
	name: "res4b18_branch2a_relu_res075"
	type: "ReLU"
}

layer {
	bottom: "res4b18_branch2a_res075"
	top: "res4b18_branch2b_res075"
	name: "res4b18_branch2b_res075"
	type: "Convolution"
  deletetop: true
	param {
		name: "res4b18_branch2b_0"
               lr_mult: ${MAIN_LR1}
               decay_mult: 1
        }
        convolution_param {
		num_output: 256
		kernel_size: 3
		pad: 2
		dilation: 2
		stride: 1
		bias_term: false
	}
}

layer {
	bottom: "res4b18_branch2b_res075"
	top: "res4b18_branch2b_res075"
	name: "bn4b18_branch2b_res075"
	type: "BatchNorm"
	batch_norm_param {
		use_global_stats: true
	}
	param {
		name: "bn4b18_branch2b_0"
	      lr_mult: 0
	}
	param {
		name: "bn4b18_branch2b_1"
	      lr_mult: 0
        }
	param {
		name: "bn4b18_branch2b_2"
	      lr_mult: 0
        }
}

layer {
	bottom: "res4b18_branch2b_res075"
	top: "res4b18_branch2b_res075"
	name: "scale4b18_branch2b_res075"
	type: "Scale"
	scale_param {
		bias_term: true
	}
	param {
		name: "scale4b18_branch2b_0"
	      lr_mult: 0
	}
	param {
		name: "scale4b18_branch2b_1"
	      lr_mult: 0
	}
}

layer {
	top: "res4b18_branch2b_res075"
	bottom: "res4b18_branch2b_res075"
	name: "res4b18_branch2b_relu_res075"
	type: "ReLU"
}

layer {
	bottom: "res4b18_branch2b_res075"
	top: "res4b18_branch2c_res075"
	name: "res4b18_branch2c_res075"
	type: "Convolution"
  deletetop: true
	param {
		name: "res4b18_branch2c_0"
               lr_mult: ${MAIN_LR1}
               decay_mult: 1
        }
        convolution_param {
		num_output: 1024
		kernel_size: 1
		pad: 0
		stride: 1
		bias_term: false
	}
}

layer {
	bottom: "res4b18_branch2c_res075"
	top: "res4b18_branch2c_res075"
	name: "bn4b18_branch2c_res075"
	type: "BatchNorm"
	batch_norm_param {
		use_global_stats: true
	}
	param {
		name: "bn4b18_branch2c_0"
	      lr_mult: 0
	}
	param {
		name: "bn4b18_branch2c_1"
	      lr_mult: 0
        }
	param {
		name: "bn4b18_branch2c_2"
	      lr_mult: 0
        }
}

layer {
	bottom: "res4b18_branch2c_res075"
	top: "res4b18_branch2c_res075"
	name: "scale4b18_branch2c_res075"
	type: "Scale"
	scale_param {
		bias_term: true
	}
	param {
		name: "scale4b18_branch2c_0"
	      lr_mult: 0
	}
	param {
		name: "scale4b18_branch2c_1"
	      lr_mult: 0
	}
}

layer {
	bottom: "res4b17_res075"
	bottom: "res4b18_branch2c_res075"
	top: "res4b18_res075"
	name: "res4b18_res075"
	type: "Eltwise"
}

layer {
	bottom: "res4b18_res075"
	top: "res4b18_res075"
	name: "res4b18_relu_res075"
	type: "ReLU"
}

layer {
	bottom: "res4b18_res075"
	top: "res4b19_branch2a_res075"
	name: "res4b19_branch2a_res075"
	type: "Convolution"
  deletetop: true
	param {
		name: "res4b19_branch2a_0"
               lr_mult: ${MAIN_LR1}
               decay_mult: 1
        }
        convolution_param {
		num_output: 256
		kernel_size: 1
		pad: 0
		stride: 1
		bias_term: false
	}
}

layer {
	bottom: "res4b19_branch2a_res075"
	top: "res4b19_branch2a_res075"
	name: "bn4b19_branch2a_res075"
	type: "BatchNorm"
	batch_norm_param {
		use_global_stats: true
	}
	param {
		name: "bn4b19_branch2a_0"
	      lr_mult: 0
	}
	param {
		name: "bn4b19_branch2a_1"
	      lr_mult: 0
        }
	param {
		name: "bn4b19_branch2a_2"
	      lr_mult: 0
        }
}

layer {
	bottom: "res4b19_branch2a_res075"
	top: "res4b19_branch2a_res075"
	name: "scale4b19_branch2a_res075"
	type: "Scale"
	scale_param {
		bias_term: true
	}
	param {
		name: "scale4b19_branch2a_0"
	      lr_mult: 0
	}
	param {
		name: "scale4b19_branch2a_1"
	      lr_mult: 0
	}
}

layer {
	top: "res4b19_branch2a_res075"
	bottom: "res4b19_branch2a_res075"
	name: "res4b19_branch2a_relu_res075"
	type: "ReLU"
}

layer {
	bottom: "res4b19_branch2a_res075"
	top: "res4b19_branch2b_res075"
	name: "res4b19_branch2b_res075"
	type: "Convolution"
  deletetop: true
	param {
		name: "res4b19_branch2b_0"
               lr_mult: ${MAIN_LR1}
               decay_mult: 1
        }
        convolution_param {
		num_output: 256
		kernel_size: 3
		pad: 2
		dilation: 2
		stride: 1
		bias_term: false
	}
}

layer {
	bottom: "res4b19_branch2b_res075"
	top: "res4b19_branch2b_res075"
	name: "bn4b19_branch2b_res075"
	type: "BatchNorm"
	batch_norm_param {
		use_global_stats: true
	}
	param {
		name: "bn4b19_branch2b_0"
	      lr_mult: 0
	}
	param {
		name: "bn4b19_branch2b_1"
	      lr_mult: 0
        }
	param {
		name: "bn4b19_branch2b_2"
	      lr_mult: 0
        }
}

layer {
	bottom: "res4b19_branch2b_res075"
	top: "res4b19_branch2b_res075"
	name: "scale4b19_branch2b_res075"
	type: "Scale"
	scale_param {
		bias_term: true
	}
	param {
		name: "scale4b19_branch2b_0"
	      lr_mult: 0
	}
	param {
		name: "scale4b19_branch2b_1"
	      lr_mult: 0
	}
}

layer {
	top: "res4b19_branch2b_res075"
	bottom: "res4b19_branch2b_res075"
	name: "res4b19_branch2b_relu_res075"
	type: "ReLU"
}

layer {
	bottom: "res4b19_branch2b_res075"
	top: "res4b19_branch2c_res075"
	name: "res4b19_branch2c_res075"
	type: "Convolution"
  deletetop: true
	param {
		name: "res4b19_branch2c_0"
               lr_mult: ${MAIN_LR1}
               decay_mult: 1
        }
        convolution_param {
		num_output: 1024
		kernel_size: 1
		pad: 0
		stride: 1
		bias_term: false
	}
}

layer {
	bottom: "res4b19_branch2c_res075"
	top: "res4b19_branch2c_res075"
	name: "bn4b19_branch2c_res075"
	type: "BatchNorm"
	batch_norm_param {
		use_global_stats: true
	}
	param {
		name: "bn4b19_branch2c_0"
	      lr_mult: 0
	}
	param {
		name: "bn4b19_branch2c_1"
	      lr_mult: 0
        }
	param {
		name: "bn4b19_branch2c_2"
	      lr_mult: 0
        }
}

layer {
	bottom: "res4b19_branch2c_res075"
	top: "res4b19_branch2c_res075"
	name: "scale4b19_branch2c_res075"
	type: "Scale"
	scale_param {
		bias_term: true
	}
	param {
		name: "scale4b19_branch2c_0"
	      lr_mult: 0
	}
	param {
		name: "scale4b19_branch2c_1"
	      lr_mult: 0
	}
}

layer {
	bottom: "res4b18_res075"
	bottom: "res4b19_branch2c_res075"
	top: "res4b19_res075"
	name: "res4b19_res075"
	type: "Eltwise"
}

layer {
	bottom: "res4b19_res075"
	top: "res4b19_res075"
	name: "res4b19_relu_res075"
	type: "ReLU"
}

layer {
	bottom: "res4b19_res075"
	top: "res4b20_branch2a_res075"
	name: "res4b20_branch2a_res075"
	type: "Convolution"
  deletetop: true
	param {
		name: "res4b20_branch2a_0"
               lr_mult: ${MAIN_LR1}
               decay_mult: 1
        }
        convolution_param {
		num_output: 256
		kernel_size: 1
		pad: 0
		stride: 1
		bias_term: false
	}
}

layer {
	bottom: "res4b20_branch2a_res075"
	top: "res4b20_branch2a_res075"
	name: "bn4b20_branch2a_res075"
	type: "BatchNorm"
	batch_norm_param {
		use_global_stats: true
	}
	param {
		name: "bn4b20_branch2a_0"
	      lr_mult: 0
	}
	param {
		name: "bn4b20_branch2a_1"
	      lr_mult: 0
        }
	param {
		name: "bn4b20_branch2a_2"
	      lr_mult: 0
        }
}

layer {
	bottom: "res4b20_branch2a_res075"
	top: "res4b20_branch2a_res075"
	name: "scale4b20_branch2a_res075"
	type: "Scale"
	scale_param {
		bias_term: true
	}
	param {
		name: "scale4b20_branch2a_0"
	      lr_mult: 0
	}
	param {
		name: "scale4b20_branch2a_1"
	      lr_mult: 0
	}
}

layer {
	top: "res4b20_branch2a_res075"
	bottom: "res4b20_branch2a_res075"
	name: "res4b20_branch2a_relu_res075"
	type: "ReLU"
}

layer {
	bottom: "res4b20_branch2a_res075"
	top: "res4b20_branch2b_res075"
	name: "res4b20_branch2b_res075"
	type: "Convolution"
  deletetop: true
	param {
		name: "res4b20_branch2b_0"
               lr_mult: ${MAIN_LR1}
               decay_mult: 1
        }
        convolution_param {
		num_output: 256
		kernel_size: 3
		pad: 2
		dilation: 2
		stride: 1
		bias_term: false
	}
}

layer {
	bottom: "res4b20_branch2b_res075"
	top: "res4b20_branch2b_res075"
	name: "bn4b20_branch2b_res075"
	type: "BatchNorm"
	batch_norm_param {
		use_global_stats: true
	}
	param {
		name: "bn4b20_branch2b_0"
	      lr_mult: 0
	}
	param {
		name: "bn4b20_branch2b_1"
	      lr_mult: 0
        }
	param {
		name: "bn4b20_branch2b_2"
	      lr_mult: 0
        }
}

layer {
	bottom: "res4b20_branch2b_res075"
	top: "res4b20_branch2b_res075"
	name: "scale4b20_branch2b_res075"
	type: "Scale"
	scale_param {
		bias_term: true
	}
	param {
		name: "scale4b20_branch2b_0"
	      lr_mult: 0
	}
	param {
		name: "scale4b20_branch2b_1"
	      lr_mult: 0
	}
}

layer {
	top: "res4b20_branch2b_res075"
	bottom: "res4b20_branch2b_res075"
	name: "res4b20_branch2b_relu_res075"
	type: "ReLU"
}

layer {
	bottom: "res4b20_branch2b_res075"
	top: "res4b20_branch2c_res075"
	name: "res4b20_branch2c_res075"
	type: "Convolution"
  deletetop: true
	param {
		name: "res4b20_branch2c_0"
               lr_mult: ${MAIN_LR1}
               decay_mult: 1
        }
        convolution_param {
		num_output: 1024
		kernel_size: 1
		pad: 0
		stride: 1
		bias_term: false
	}
}

layer {
	bottom: "res4b20_branch2c_res075"
	top: "res4b20_branch2c_res075"
	name: "bn4b20_branch2c_res075"
	type: "BatchNorm"
	batch_norm_param {
		use_global_stats: true
	}
	param {
		name: "bn4b20_branch2c_0"
	      lr_mult: 0
	}
	param {
		name: "bn4b20_branch2c_1"
	      lr_mult: 0
        }
	param {
		name: "bn4b20_branch2c_2"
	      lr_mult: 0
        }
}

layer {
	bottom: "res4b20_branch2c_res075"
	top: "res4b20_branch2c_res075"
	name: "scale4b20_branch2c_res075"
	type: "Scale"
	scale_param {
		bias_term: true
	}
	param {
		name: "scale4b20_branch2c_0"
	      lr_mult: 0
	}
	param {
		name: "scale4b20_branch2c_1"
	      lr_mult: 0
	}
}

layer {
	bottom: "res4b19_res075"
	bottom: "res4b20_branch2c_res075"
	top: "res4b20_res075"
	name: "res4b20_res075"
	type: "Eltwise"
}

layer {
	bottom: "res4b20_res075"
	top: "res4b20_res075"
	name: "res4b20_relu_res075"
	type: "ReLU"
}

layer {
	bottom: "res4b20_res075"
	top: "res4b21_branch2a_res075"
	name: "res4b21_branch2a_res075"
	type: "Convolution"
  deletetop: true
	param {
		name: "res4b21_branch2a_0"
               lr_mult: ${MAIN_LR1}
               decay_mult: 1
        }
        convolution_param {
		num_output: 256
		kernel_size: 1
		pad: 0
		stride: 1
		bias_term: false
	}
}

layer {
	bottom: "res4b21_branch2a_res075"
	top: "res4b21_branch2a_res075"
	name: "bn4b21_branch2a_res075"
	type: "BatchNorm"
	batch_norm_param {
		use_global_stats: true
	}
	param {
		name: "bn4b21_branch2a_0"
	      lr_mult: 0
	}
	param {
		name: "bn4b21_branch2a_1"
	      lr_mult: 0
        }
	param {
		name: "bn4b21_branch2a_2"
	      lr_mult: 0
        }
}

layer {
	bottom: "res4b21_branch2a_res075"
	top: "res4b21_branch2a_res075"
	name: "scale4b21_branch2a_res075"
	type: "Scale"
	scale_param {
		bias_term: true
	}
	param {
		name: "scale4b21_branch2a_0"
	      lr_mult: 0
	}
	param {
		name: "scale4b21_branch2a_1"
	      lr_mult: 0
	}
}

layer {
	top: "res4b21_branch2a_res075"
	bottom: "res4b21_branch2a_res075"
	name: "res4b21_branch2a_relu_res075"
	type: "ReLU"
}

layer {
	bottom: "res4b21_branch2a_res075"
	top: "res4b21_branch2b_res075"
	name: "res4b21_branch2b_res075"
	type: "Convolution"
  deletetop: true
	param {
		name: "res4b21_branch2b_0"
               lr_mult: ${MAIN_LR1}
               decay_mult: 1
        }
        convolution_param {
		num_output: 256
		kernel_size: 3
		pad: 2
		dilation: 2
		stride: 1
		bias_term: false
	}
}

layer {
	bottom: "res4b21_branch2b_res075"
	top: "res4b21_branch2b_res075"
	name: "bn4b21_branch2b_res075"
	type: "BatchNorm"
	batch_norm_param {
		use_global_stats: true
	}
	param {
		name: "bn4b21_branch2b_0"
	      lr_mult: 0
	}
	param {
		name: "bn4b21_branch2b_1"
	      lr_mult: 0
        }
	param {
		name: "bn4b21_branch2b_2"
	      lr_mult: 0
        }
}

layer {
	bottom: "res4b21_branch2b_res075"
	top: "res4b21_branch2b_res075"
	name: "scale4b21_branch2b_res075"
	type: "Scale"
	scale_param {
		bias_term: true
	}
	param {
		name: "scale4b21_branch2b_0"
	      lr_mult: 0
	}
	param {
		name: "scale4b21_branch2b_1"
	      lr_mult: 0
	}
}

layer {
	top: "res4b21_branch2b_res075"
	bottom: "res4b21_branch2b_res075"
	name: "res4b21_branch2b_relu_res075"
	type: "ReLU"
}

layer {
	bottom: "res4b21_branch2b_res075"
	top: "res4b21_branch2c_res075"
	name: "res4b21_branch2c_res075"
	type: "Convolution"
  deletetop: true
	param {
		name: "res4b21_branch2c_0"
               lr_mult: ${MAIN_LR1}
               decay_mult: 1
        }
        convolution_param {
		num_output: 1024
		kernel_size: 1
		pad: 0
		stride: 1
		bias_term: false
	}
}

layer {
	bottom: "res4b21_branch2c_res075"
	top: "res4b21_branch2c_res075"
	name: "bn4b21_branch2c_res075"
	type: "BatchNorm"
	batch_norm_param {
		use_global_stats: true
	}
	param {
		name: "bn4b21_branch2c_0"
	      lr_mult: 0
	}
	param {
		name: "bn4b21_branch2c_1"
	      lr_mult: 0
        }
	param {
		name: "bn4b21_branch2c_2"
	      lr_mult: 0
        }
}

layer {
	bottom: "res4b21_branch2c_res075"
	top: "res4b21_branch2c_res075"
	name: "scale4b21_branch2c_res075"
	type: "Scale"
	scale_param {
		bias_term: true
	}
	param {
		name: "scale4b21_branch2c_0"
	      lr_mult: 0
	}
	param {
		name: "scale4b21_branch2c_1"
	      lr_mult: 0
	}
}

layer {
	bottom: "res4b20_res075"
	bottom: "res4b21_branch2c_res075"
	top: "res4b21_res075"
	name: "res4b21_res075"
	type: "Eltwise"
}

layer {
	bottom: "res4b21_res075"
	top: "res4b21_res075"
	name: "res4b21_relu_res075"
	type: "ReLU"
}

layer {
	bottom: "res4b21_res075"
	top: "res4b22_branch2a_res075"
	name: "res4b22_branch2a_res075"
	type: "Convolution"
  deletetop: true
	param {
		name: "res4b22_branch2a_0"
               lr_mult: ${MAIN_LR1}
               decay_mult: 1
        }
        convolution_param {
		num_output: 256
		kernel_size: 1
		pad: 0
		stride: 1
		bias_term: false
	}
}

layer {
	bottom: "res4b22_branch2a_res075"
	top: "res4b22_branch2a_res075"
	name: "bn4b22_branch2a_res075"
	type: "BatchNorm"
	batch_norm_param {
		use_global_stats: true
	}
	param {
		name: "bn4b22_branch2a_0"
	      lr_mult: 0
	}
	param {
		name: "bn4b22_branch2a_1"
	      lr_mult: 0
        }
	param {
		name: "bn4b22_branch2a_2"
	      lr_mult: 0
        }
}

layer {
	bottom: "res4b22_branch2a_res075"
	top: "res4b22_branch2a_res075"
	name: "scale4b22_branch2a_res075"
	type: "Scale"
	scale_param {
		bias_term: true
	}
	param {
		name: "scale4b22_branch2a_0"
	      lr_mult: 0
	}
	param {
		name: "scale4b22_branch2a_1"
	      lr_mult: 0
	}
}

layer {
	top: "res4b22_branch2a_res075"
	bottom: "res4b22_branch2a_res075"
	name: "res4b22_branch2a_relu_res075"
	type: "ReLU"
}

layer {
	bottom: "res4b22_branch2a_res075"
	top: "res4b22_branch2b_res075"
	name: "res4b22_branch2b_res075"
	type: "Convolution"
  deletetop: true
	param {
		name: "res4b22_branch2b_0"
               lr_mult: ${MAIN_LR1}
               decay_mult: 1
        }
        convolution_param {
		num_output: 256
		kernel_size: 3
		pad: 2
		dilation: 2
		stride: 1
		bias_term: false
	}
}

layer {
	bottom: "res4b22_branch2b_res075"
	top: "res4b22_branch2b_res075"
	name: "bn4b22_branch2b_res075"
	type: "BatchNorm"
	batch_norm_param {
		use_global_stats: true
	}
	param {
		name: "bn4b22_branch2b_0"
	      lr_mult: 0
	}
	param {
		name: "bn4b22_branch2b_1"
	      lr_mult: 0
        }
	param {
		name: "bn4b22_branch2b_2"
	      lr_mult: 0
        }
}

layer {
	bottom: "res4b22_branch2b_res075"
	top: "res4b22_branch2b_res075"
	name: "scale4b22_branch2b_res075"
	type: "Scale"
	scale_param {
		bias_term: true
	}
	param {
		name: "scale4b22_branch2b_0"
	      lr_mult: 0
	}
	param {
		name: "scale4b22_branch2b_1"
	      lr_mult: 0
	}
}

layer {
	top: "res4b22_branch2b_res075"
	bottom: "res4b22_branch2b_res075"
	name: "res4b22_branch2b_relu_res075"
	type: "ReLU"
}

layer {
	bottom: "res4b22_branch2b_res075"
	top: "res4b22_branch2c_res075"
	name: "res4b22_branch2c_res075"
	type: "Convolution"
  deletetop: true
	param {
		name: "res4b22_branch2c_0"
               lr_mult: ${MAIN_LR1}
               decay_mult: 1
        }
        convolution_param {
		num_output: 1024
		kernel_size: 1
		pad: 0
		stride: 1
		bias_term: false
	}
}

layer {
	bottom: "res4b22_branch2c_res075"
	top: "res4b22_branch2c_res075"
	name: "bn4b22_branch2c_res075"
	type: "BatchNorm"
	batch_norm_param {
		use_global_stats: true
	}
	param {
		name: "bn4b22_branch2c_0"
	      lr_mult: 0
	}
	param {
		name: "bn4b22_branch2c_1"
	      lr_mult: 0
        }
	param {
		name: "bn4b22_branch2c_2"
	      lr_mult: 0
        }
}

layer {
	bottom: "res4b22_branch2c_res075"
	top: "res4b22_branch2c_res075"
	name: "scale4b22_branch2c_res075"
	type: "Scale"
	scale_param {
		bias_term: true
	}
	param {
		name: "scale4b22_branch2c_0"
	      lr_mult: 0
	}
	param {
		name: "scale4b22_branch2c_1"
	      lr_mult: 0
	}
}

layer {
	bottom: "res4b21_res075"
	bottom: "res4b22_branch2c_res075"
	top: "res4b22_res075"
	name: "res4b22_res075"
	type: "Eltwise"
}

layer {
	bottom: "res4b22_res075"
	top: "res4b22_res075"
	name: "res4b22_relu_res075"
	type: "ReLU"
}

layer {
	bottom: "res4b22_res075"
	top: "res5a_branch1_res075"
	name: "res5a_branch1_res075"
	type: "Convolution"
  deletetop: true
	param {
		name: "res5a_branch1_0"
               lr_mult: ${MAIN_LR1}
               decay_mult: 1
        }
        convolution_param {
		num_output: 2048
		kernel_size: 1
		pad: 0
		stride: 1
		bias_term: false
	}
}

layer {
	bottom: "res5a_branch1_res075"
	top: "res5a_branch1_res075"
	name: "bn5a_branch1_res075"
	type: "BatchNorm"
	batch_norm_param {
		use_global_stats: true
	}
	param {
		name: "bn5a_branch1_0"
	      lr_mult: 0
	}
	param {
		name: "bn5a_branch1_1"
	      lr_mult: 0
        }
	param {
		name: "bn5a_branch1_2"
	      lr_mult: 0
        }
}

layer {
	bottom: "res5a_branch1_res075"
	top: "res5a_branch1_res075"
	name: "scale5a_branch1_res075"
	type: "Scale"
	scale_param {
		bias_term: true
	}
	param {
		name: "scale5a_branch1_0"
	      lr_mult: 0
	}
	param {
		name: "scale5a_branch1_1"
	      lr_mult: 0
	}
}

layer {
	bottom: "res4b22_res075"
	top: "res5a_branch2a_res075"
	name: "res5a_branch2a_res075"
	type: "Convolution"
  deletetop: true
	param {
		name: "res5a_branch2a_0"
               lr_mult: ${MAIN_LR1}
               decay_mult: 1
        }
        convolution_param {
		num_output: 512
		kernel_size: 1
		pad: 0
		stride: 1
		bias_term: false
	}
}

layer {
	bottom: "res5a_branch2a_res075"
	top: "res5a_branch2a_res075"
	name: "bn5a_branch2a_res075"
	type: "BatchNorm"
	batch_norm_param {
		use_global_stats: true
	}
	param {
		name: "bn5a_branch2a_0"
	      lr_mult: 0
	}
	param {
		name: "bn5a_branch2a_1"
	      lr_mult: 0
        }
	param {
		name: "bn5a_branch2a_2"
	      lr_mult: 0
        }
}

layer {
	bottom: "res5a_branch2a_res075"
	top: "res5a_branch2a_res075"
	name: "scale5a_branch2a_res075"
	type: "Scale"
	scale_param {
		bias_term: true
	}
	param {
		name: "scale5a_branch2a_0"
	      lr_mult: 0
	}
	param {
		name: "scale5a_branch2a_1"
	      lr_mult: 0
	}
}

layer {
	top: "res5a_branch2a_res075"
	bottom: "res5a_branch2a_res075"
	name: "res5a_branch2a_relu_res075"
	type: "ReLU"
}

layer {
	bottom: "res5a_branch2a_res075"
	top: "res5a_branch2b_res075"
	name: "res5a_branch2b_res075"
	type: "Convolution"
  deletetop: true
	param {
		name: "res5a_branch2b_0"
               lr_mult: ${MAIN_LR1}
               decay_mult: 1
        }
        convolution_param {
		num_output: 512
		kernel_size: 3
		pad: 4
		dilation: 4
		stride: 1
		bias_term: false
	}
}

layer {
	bottom: "res5a_branch2b_res075"
	top: "res5a_branch2b_res075"
	name: "bn5a_branch2b_res075"
	type: "BatchNorm"
	batch_norm_param {
		use_global_stats: true
	}
	param {
		name: "bn5a_branch2b_0"
	      lr_mult: 0
	}
	param {
		name: "bn5a_branch2b_1"
	      lr_mult: 0
        }
	param {
		name: "bn5a_branch2b_2"
	      lr_mult: 0
        }
}

layer {
	bottom: "res5a_branch2b_res075"
	top: "res5a_branch2b_res075"
	name: "scale5a_branch2b_res075"
	type: "Scale"
	scale_param {
		bias_term: true
	}
	param {
		name: "scale5a_branch2b_0"
	      lr_mult: 0
	}
	param {
		name: "scale5a_branch2b_1"
	      lr_mult: 0
	}
}

layer {
	top: "res5a_branch2b_res075"
	bottom: "res5a_branch2b_res075"
	name: "res5a_branch2b_relu_res075"
	type: "ReLU"
}

layer {
	bottom: "res5a_branch2b_res075"
	top: "res5a_branch2c_res075"
	name: "res5a_branch2c_res075"
	type: "Convolution"
  deletetop: true
	param {
		name: "res5a_branch2c_0"
               lr_mult: ${MAIN_LR1}
               decay_mult: 1
        }
        convolution_param {
		num_output: 2048
		kernel_size: 1
		pad: 0
		stride: 1
		bias_term: false
	}
}

layer {
	bottom: "res5a_branch2c_res075"
	top: "res5a_branch2c_res075"
	name: "bn5a_branch2c_res075"
	type: "BatchNorm"
	batch_norm_param {
		use_global_stats: true
	}
	param {
		name: "bn5a_branch2c_0"
	      lr_mult: 0
	}
	param {
		name: "bn5a_branch2c_1"
	      lr_mult: 0
        }
	param {
		name: "bn5a_branch2c_2"
	      lr_mult: 0
        }
}

layer {
	bottom: "res5a_branch2c_res075"
	top: "res5a_branch2c_res075"
	name: "scale5a_branch2c_res075"
	type: "Scale"
	scale_param {
		bias_term: true
	}
	param {
		name: "scale5a_branch2c_0"
	      lr_mult: 0
	}
	param {
		name: "scale5a_branch2c_1"
	      lr_mult: 0
	}
}

layer {
	bottom: "res5a_branch1_res075"
	bottom: "res5a_branch2c_res075"
	top: "res5a_res075"
	name: "res5a_res075"
	type: "Eltwise"
}

layer {
	bottom: "res5a_res075"
	top: "res5a_res075"
	name: "res5a_relu_res075"
	type: "ReLU"
}

layer {
	bottom: "res5a_res075"
	top: "res5b_branch2a_res075"
	name: "res5b_branch2a_res075"
	type: "Convolution"
  deletetop: true
	param {
		name: "res5b_branch2a_0"
               lr_mult: ${MAIN_LR1}
               decay_mult: 1
        }
        convolution_param {
		num_output: 512
		kernel_size: 1
		pad: 0
		stride: 1
		bias_term: false
	}
}

layer {
	bottom: "res5b_branch2a_res075"
	top: "res5b_branch2a_res075"
	name: "bn5b_branch2a_res075"
	type: "BatchNorm"
	batch_norm_param {
		use_global_stats: true
	}
	param {
		name: "bn5b_branch2a_0"
	      lr_mult: 0
	}
	param {
		name: "bn5b_branch2a_1"
	      lr_mult: 0
        }
	param {
		name: "bn5b_branch2a_2"
	      lr_mult: 0
        }
}

layer {
	bottom: "res5b_branch2a_res075"
	top: "res5b_branch2a_res075"
	name: "scale5b_branch2a_res075"
	type: "Scale"
	scale_param {
		bias_term: true
	}
	param {
		name: "scale5b_branch2a_0"
	      lr_mult: 0
	}
	param {
		name: "scale5b_branch2a_1"
	      lr_mult: 0
	}
}

layer {
	top: "res5b_branch2a_res075"
	bottom: "res5b_branch2a_res075"
	name: "res5b_branch2a_relu_res075"
	type: "ReLU"
}

layer {
	bottom: "res5b_branch2a_res075"
	top: "res5b_branch2b_res075"
	name: "res5b_branch2b_res075"
	type: "Convolution"
  deletetop: true
	param {
		name: "res5b_branch2b_0"
               lr_mult: ${MAIN_LR1}
               decay_mult: 1
        }
        convolution_param {
		num_output: 512
		kernel_size: 3
		pad: 4
		dilation: 4
		stride: 1
		bias_term: false
	}
}

layer {
	bottom: "res5b_branch2b_res075"
	top: "res5b_branch2b_res075"
	name: "bn5b_branch2b_res075"
	type: "BatchNorm"
	batch_norm_param {
		use_global_stats: true
	}
	param {
		name: "bn5b_branch2b_0"
	      lr_mult: 0
	}
	param {
		name: "bn5b_branch2b_1"
	      lr_mult: 0
        }
	param {
		name: "bn5b_branch2b_2"
	      lr_mult: 0
        }
}

layer {
	bottom: "res5b_branch2b_res075"
	top: "res5b_branch2b_res075"
	name: "scale5b_branch2b_res075"
	type: "Scale"
	scale_param {
		bias_term: true
	}
	param {
		name: "scale5b_branch2b_0"
	      lr_mult: 0
	}
	param {
		name: "scale5b_branch2b_1"
	      lr_mult: 0
	}
}

layer {
	top: "res5b_branch2b_res075"
	bottom: "res5b_branch2b_res075"
	name: "res5b_branch2b_relu_res075"
	type: "ReLU"
}

layer {
	bottom: "res5b_branch2b_res075"
	top: "res5b_branch2c_res075"
	name: "res5b_branch2c_res075"
	type: "Convolution"
  deletetop: true
	param {
		name: "res5b_branch2c_0"
               lr_mult: ${MAIN_LR1}
               decay_mult: 1
        }
        convolution_param {
		num_output: 2048
		kernel_size: 1
		pad: 0
		stride: 1
		bias_term: false
	}
}

layer {
	bottom: "res5b_branch2c_res075"
	top: "res5b_branch2c_res075"
	name: "bn5b_branch2c_res075"
	type: "BatchNorm"
	batch_norm_param {
		use_global_stats: true
	}
	param {
		name: "bn5b_branch2c_0"
	      lr_mult: 0
	}
	param {
		name: "bn5b_branch2c_1"
	      lr_mult: 0
        }
	param {
		name: "bn5b_branch2c_2"
	      lr_mult: 0
        }
}

layer {
	bottom: "res5b_branch2c_res075"
	top: "res5b_branch2c_res075"
	name: "scale5b_branch2c_res075"
	type: "Scale"
	scale_param {
		bias_term: true
	}
	param {
		name: "scale5b_branch2c_0"
	      lr_mult: 0
	}
	param {
		name: "scale5b_branch2c_1"
	      lr_mult: 0
	}
}

layer {
	bottom: "res5a_res075"
	bottom: "res5b_branch2c_res075"
	top: "res5b_res075"
	name: "res5b_res075"
	type: "Eltwise"
}

layer {
	bottom: "res5b_res075"
	top: "res5b_res075"
	name: "res5b_relu_res075"
	type: "ReLU"
}

layer {
	bottom: "res5b_res075"
	top: "res5c_branch2a_res075"
	name: "res5c_branch2a_res075"
	type: "Convolution"
  deletetop: true
	param {
		name: "res5c_branch2a_0"
               lr_mult: ${MAIN_LR1}
               decay_mult: 1
        }
        convolution_param {
		num_output: 512
		kernel_size: 1
		pad: 0
		stride: 1
		bias_term: false
	}
}

layer {
	bottom: "res5c_branch2a_res075"
	top: "res5c_branch2a_res075"
	name: "bn5c_branch2a_res075"
	type: "BatchNorm"
	batch_norm_param {
		use_global_stats: true
	}
	param {
		name: "bn5c_branch2a_0"
	      lr_mult: 0
	}
	param {
		name: "bn5c_branch2a_1"
	      lr_mult: 0
        }
	param {
		name: "bn5c_branch2a_2"
	      lr_mult: 0
        }
}

layer {
	bottom: "res5c_branch2a_res075"
	top: "res5c_branch2a_res075"
	name: "scale5c_branch2a_res075"
	type: "Scale"
	scale_param {
		bias_term: true
	}
	param {
		name: "scale5c_branch2a_0"
	      lr_mult: 0
	}
	param {
		name: "scale5c_branch2a_1"
	      lr_mult: 0
	}
}

layer {
	top: "res5c_branch2a_res075"
	bottom: "res5c_branch2a_res075"
	name: "res5c_branch2a_relu_res075"
	type: "ReLU"
}

layer {
	bottom: "res5c_branch2a_res075"
	top: "res5c_branch2b_res075"
	name: "res5c_branch2b_res075"
	type: "Convolution"
  deletetop: true
	param {
		name: "res5c_branch2b_0"
               lr_mult: ${MAIN_LR1}
               decay_mult: 1
        }
        convolution_param {
		num_output: 512
		kernel_size: 3
		pad: 4
		dilation: 4
		stride: 1
		bias_term: false
	}
}

layer {
	bottom: "res5c_branch2b_res075"
	top: "res5c_branch2b_res075"
	name: "bn5c_branch2b_res075"
	type: "BatchNorm"
	batch_norm_param {
		use_global_stats: true
	}
	param {
		name: "bn5c_branch2b_0"
	      lr_mult: 0
	}
	param {
		name: "bn5c_branch2b_1"
	      lr_mult: 0
        }
	param {
		name: "bn5c_branch2b_2"
	      lr_mult: 0
        }
}

layer {
	bottom: "res5c_branch2b_res075"
	top: "res5c_branch2b_res075"
	name: "scale5c_branch2b_res075"
	type: "Scale"
	scale_param {
		bias_term: true
	}
	param {
		name: "scale5c_branch2b_0"
	      lr_mult: 0
	}
	param {
		name: "scale5c_branch2b_1"
	      lr_mult: 0
	}
}

layer {
	top: "res5c_branch2b_res075"
	bottom: "res5c_branch2b_res075"
	name: "res5c_branch2b_relu_res075"
	type: "ReLU"
}

layer {
	bottom: "res5c_branch2b_res075"
	top: "res5c_branch2c_res075"
	name: "res5c_branch2c_res075"
	type: "Convolution"
  deletetop: true
	param {
		name: "res5c_branch2c_0"
               lr_mult: ${MAIN_LR1}
               decay_mult: 1
        }
        convolution_param {
		num_output: 2048
		kernel_size: 1
		pad: 0
		stride: 1
		bias_term: false
	}
}

layer {
	bottom: "res5c_branch2c_res075"
	top: "res5c_branch2c_res075"
	name: "bn5c_branch2c_res075"
	type: "BatchNorm"
	batch_norm_param {
		use_global_stats: true
	}
	param {
		name: "bn5c_branch2c_0"
	      lr_mult: 0
	}
	param {
		name: "bn5c_branch2c_1"
	      lr_mult: 0
        }
	param {
		name: "bn5c_branch2c_2"
	      lr_mult: 0
        }
}

layer {
	bottom: "res5c_branch2c_res075"
	top: "res5c_branch2c_res075"
	name: "scale5c_branch2c_res075"
	type: "Scale"
	scale_param {
		bias_term: true
	}
	param {
		name: "scale5c_branch2c_0"
	      lr_mult: 0
	}
	param {
		name: "scale5c_branch2c_1"
	      lr_mult: 0
	}
}

layer {
	bottom: "res5b_res075"
	bottom: "res5c_branch2c_res075"
	top: "res5c_res075"
	name: "res5c_res075"
	type: "Eltwise"
}

layer {
	bottom: "res5c_res075"
	top: "res5c_res075"
	name: "res5c_relu_res075"
	type: "ReLU"
}


############################### classifiers ##########################
layer {
  name: "fc1_voc12_c0"
  type: "Convolution"
  bottom: "res5c"
  top: "fc1_voc12_c0"
  param {
    name: "fc1_voc12_c0_w"
    lr_mult: ${FINAL_LR1}
  }
  param {
    name: "fc1_voc12_c0_b"
    lr_mult: ${FINAL_LR2}
  }
  convolution_param {
    num_output: 21
    kernel_size: 3
    pad: 6
    dilation: 6
  }
}

layer {
  name: "fc1_voc12_c1"
  type: "Convolution"
  bottom: "res5c"
  top: "fc1_voc12_c1"
  param {
    name: "fc1_voc12_c1_w"
    lr_mult: ${FINAL_LR1}
  }
  param {
    name: "fc1_voc12_c1_b"
    lr_mult: ${FINAL_LR2}
  }
  convolution_param {
    num_output: 21
    kernel_size: 3
    dilation: 12
    pad: 12
  }
}

layer {
  name: "fc1_voc12_c2"
  type: "Convolution"
  bottom: "res5c"
  top: "fc1_voc12_c2"
  param {
    name: "fc1_voc12_c2_w"
    lr_mult: ${FINAL_LR1}
  }
  param {
    name: "fc1_voc12_c2_b"
    lr_mult: ${FINAL_LR2}
  }
  convolution_param {
    num_output: 21
    kernel_size: 3
    dilation: 18
    pad: 18
  }
}

layer {
  name: "fc1_voc12_c3"
  type: "Convolution"
  bottom: "res5c"
  top: "fc1_voc12_c3"
  param {
    name: "fc1_voc12_c3_w"
    lr_mult: ${FINAL_LR1}
  }
  param {
    name: "fc1_voc12_c3_b"
    lr_mult: ${FINAL_LR2}
  }
  convolution_param {
    num_output: 21
    kernel_size: 3
    dilation: 24
    pad: 24
  }
}

### SUM the all branches

layer {
  bottom: "fc1_voc12_c0"
  bottom: "fc1_voc12_c1"
  bottom: "fc1_voc12_c2"
  bottom: "fc1_voc12_c3"
  top: "fc1_voc12"
  name: "fc1_voc12"
  type: "Eltwise"
  eltwise_param {
    operation: SUM
  }
}

######################## classifier for res 0.5 #################

layer {
  name: "fc1_voc12_res05_c0"
  type: "Convolution"
  bottom: "res5c_res05"
  top: "fc1_voc12_res05_c0"
  param {
    name: "fc1_voc12_c0_w"
    lr_mult: ${FINAL_LR1}
  }
  param {
    name: "fc1_voc12_c0_b"
    lr_mult: ${FINAL_LR2}
  }
  convolution_param {
    num_output: 21
    kernel_size: 3
    pad: 6
    dilation: 6
  }
}

layer {
  name: "fc1_voc12_res05_c1"
  type: "Convolution"
  bottom: "res5c_res05"
  top: "fc1_voc12_res05_c1"
  param {
    name: "fc1_voc12_c1_w"
    lr_mult: ${FINAL_LR1}
  }
  param {
    name: "fc1_voc12_c1_b"
    lr_mult: ${FINAL_LR2}
  }
  convolution_param {
    num_output: 21
    kernel_size: 3
    dilation: 12
    pad: 12
  }
}
layer {
  name: "fc1_voc12_res05_c2"
  type: "Convolution"
  bottom: "res5c_res05"
  top: "fc1_voc12_res05_c2"
  param {
    name: "fc1_voc12_c2_w"
    lr_mult: ${FINAL_LR1}
  }
  param {
    name: "fc1_voc12_c2_b"
    lr_mult: ${FINAL_LR2}
  }
  convolution_param {
    num_output: 21
    kernel_size: 3
    dilation: 18
    pad: 18
  }
}
layer {
  name: "fc1_voc12_res05_c3"
  type: "Convolution"
  bottom: "res5c_res05"
  top: "fc1_voc12_res05_c3"
  param {
    name: "fc1_voc12_c3_w"
    lr_mult: ${FINAL_LR1}
  }
  param {
    name: "fc1_voc12_c3_b"
    lr_mult: ${FINAL_LR2}
  }
  convolution_param {
    num_output: 21
    kernel_size: 3
    dilation: 24
    pad: 24
  }
}

### SUM the all branches

layer {
  bottom: "fc1_voc12_res05_c0"
  bottom: "fc1_voc12_res05_c1"
  bottom: "fc1_voc12_res05_c2"
  bottom: "fc1_voc12_res05_c3"
  top: "fc1_voc12_res05"
  name: "fc1_voc12_res05"
  type: "Eltwise"
  eltwise_param {
    operation: SUM
  }
}


################### classifier for res 0.75 ###########

layer {
  name: "fc1_voc12_res075_c0"
  type: "Convolution"
  bottom: "res5c_res075"
  top: "fc1_voc12_res075_c0"
  param {
    name: "fc1_voc12_c0_w"
    lr_mult: ${FINAL_LR1}
  }
  param {
    name: "fc1_voc12_c0_b"
    lr_mult: ${FINAL_LR2}
  }
  convolution_param {
    num_output: 21
    kernel_size: 3
    pad: 6
    dilation: 6
  }
}

layer {
  name: "fc1_voc12_res075_c1"
  type: "Convolution"
  bottom: "res5c_res075"
  top: "fc1_voc12_res075_c1"
  param {
    name: "fc1_voc12_c1_w"
    lr_mult: ${FINAL_LR1}
  }
  param {
    name: "fc1_voc12_c1_b"
    lr_mult: ${FINAL_LR2}
  }
  convolution_param {
    num_output: 21
    kernel_size: 3
    dilation: 12
    pad: 12
  }
}

layer {
  name: "fc1_voc12_res075_c2"
  type: "Convolution"
  bottom: "res5c_res075"
  top: "fc1_voc12_res075_c2"
  param {
    name: "fc1_voc12_c2_w"
    lr_mult: ${FINAL_LR1}
  }
  param {
    name: "fc1_voc12_c2_b"
    lr_mult: ${FINAL_LR2}
  }
  convolution_param {
    num_output: 21
    kernel_size: 3
    dilation: 18
    pad: 18
  }
}

layer {
  name: "fc1_voc12_res075_c3"
  type: "Convolution"
  bottom: "res5c_res075"
  top: "fc1_voc12_res075_c3"
  param {
    name: "fc1_voc12_c3_w"
    lr_mult: ${FINAL_LR1}
  }
  param {
    name: "fc1_voc12_c3_b"
    lr_mult: ${FINAL_LR2}
  }
  convolution_param {
    num_output: 21
    kernel_size: 3
    dilation: 24
    pad: 24
  }
}

### SUM the all branches

layer {
  bottom: "fc1_voc12_res075_c0"
  bottom: "fc1_voc12_res075_c1"
  bottom: "fc1_voc12_res075_c2"
  bottom: "fc1_voc12_res075_c3"
  top: "fc1_voc12_res075"
  name: "fc1_voc12_res075"
  type: "Eltwise"
  eltwise_param {
    operation: SUM
  }
}

############### upsampling ##################
layer {
  bottom: "fc1_voc12_res05"
  top: "fc1_voc12_res05_interp"
  name: "fc1_voc12_res05_interp"
  type: "Interp"
  interp_param {
    zoom_factor: 2
    pad_beg: 0
    pad_end: 0
  }
}
layer {
  bottom: "fc1_voc12_res075"
  top: "fc1_voc12_res075_interp"
  name: "fc1_voc12_res075_interp"
  type: "Interp"
  interp_param {
    zoom_factor: 4
    shrink_factor: 3    
    pad_beg: 0
    pad_end: 0
  }
}

############### merging multiscale results #####################
layer {
  bottom: "fc1_voc12"
  bottom: "fc1_voc12_res075_interp"
  bottom: "fc1_voc12_res05_interp"
  top: "fc_fusion"
  name: "fc_fusion"
  type: "Eltwise"
  eltwise_param {
    operation: MAX
  }
}

########### normconv crf ###############

layer {
  type: "DummyData"
  name: "xy"
  top: "xy"
  dummy_data_param {
    shape { dim: ${BATCH_SIZE} dim: 2 dim: ${HALF_SIZE} dim: ${HALF_SIZE} }
    data_filler { type: "xy" }
  }
}
layer {
  bottom: "fc_fusion"
  top: "fc_fusion_big"
  name: "fc_fusion_big"
  type: "Interp"
  interp_param {
    zoom_factor: 4
    pad_beg: 0
    pad_end: 0
  }
}
layer {
  bottom: "emb"
  top: "emb2"
  name: "emb2"
  type: "Interp"
  interp_param { shrink_factor: 2 }
}
layer { type: 'Split' name: 'splitting'
  bottom: 'fc_fusion_big' top: 'unary' top: 'Q0'
}
layer {
  bottom: "xy"
  top: "scaled_xy"
  name: "scaled_xy"
  type: "Scale"
  param { lr_mult: ${CRF_LR1} decay_mult: 1 }
  scale_param { num_axes: 0 filler { type: "constant" value: 0.05 } bias_term: false }
}
layer {
#  bottom: "data_res05"
  bottom: "emb2"
  top: "scaled_emb"
  name: "scaled_emb"
  type: "Scale"
  param { lr_mult: ${CRF_LR1} decay_mult: 1 }
  scale_param { num_axes: 0 filler { type: "constant" value: 200 } bias_term: false }
}
layer {
  bottom: "xy"
  top: "scaled_xy2"
  name: "scaled_xy2"
  type: "Scale"
  param { lr_mult: ${CRF_LR1} decay_mult: 1 }
  scale_param { num_axes: 0 filler { type: "constant" value: 0.05 } bias_term: false }
}
layer {
  type: "Concat"
  name: "embxy"
  top: "embxy"
  bottom: "scaled_emb"
  bottom: "scaled_xy"
}
layer {
  name: "crf"
  type: "NormConvMeanfield"
  bottom: "unary"
  bottom: "Q0"
  bottom: "embxy"
  bottom: "scaled_xy2"
  top: "crf"
  param {
    lr_mult: ${CRF_LR2} # learning rate for W_G
  }
  param {
    lr_mult: ${CRF_LR2} # learning rate for W_B
  }
  param {
    lr_mult: ${CRF_LR2} # learning rate for compatiblity transform matrix
  }
  norm_conv_meanfield_param {
    num_iterations: 2
    remove_center: true remove_bounds: true
    remove_center: true remove_bounds: true
    #kernel_size: 15 pad: 63 dilation: 9 scale: 1.0000
    #kernel_size: 9 pad: 36 dilation: 9 scale: 1.0000
    kernel_size: 13 pad: 54 dilation: 9 scale: 1.0000
    kernel_size: 5 pad: 2 dilation: 1 scale: 1.0000
  }
}


######## loss for crf #########
layer {
  bottom: "label"
  top: "label_shrink2"
  name: "label_shrink2"
  type: "Interp"
  interp_param {
    shrink_factor: 2
    pad_beg: 0
    pad_end: 0
  }
}
layer {
  name: "loss"
  type: "SoftmaxWithLoss"
  bottom: "crf"
  bottom: "label_shrink2"
  include {
    phase: TRAIN
  }
  loss_param {
    ignore_label: 255
  }
}
layer {
  name: "crf_accuracy"
  type: "SegAccuracy"
  bottom: "crf"
  bottom: "label_shrink2"
  top: "crf_accuracy"
  seg_accuracy_param {
    ignore_label: 255
  }
}


######## loss for fc_fusion #########
layer {
  bottom: "label"
  top: "label_shrink"
  name: "label_shrink"
  type: "Interp"
  interp_param {
    shrink_factor: 8
    pad_beg: 0
    pad_end: 0
  }
}
layer {
  name: "loss"
  type: "SoftmaxWithLoss"
  bottom: "fc_fusion"
  bottom: "label_shrink"
  include {
    phase: TRAIN
  }
  loss_param {
    ignore_label: 255
  }
}
layer {
  name: "accuracy"
  type: "SegAccuracy"
  bottom: "fc_fusion"
  bottom: "label_shrink"
  top: "accuracy"
  seg_accuracy_param {
    ignore_label: 255
  }
}

############## add supervsion to fc1's directly ##########
## resolution 1
layer {
  name: "loss_res1"
  type: "SoftmaxWithLoss"
  bottom: "fc1_voc12"
  bottom: "label_shrink"
  loss_param {
    ignore_label: 255
  }
  include: { phase: TRAIN }
}
layer {
  name: "accuracy_res1"
  type: "SegAccuracy"
  bottom: "fc1_voc12"
  bottom: "label_shrink"
  top: "accuracy_res1"
  seg_accuracy_param {
    ignore_label: 255
  } 
}

## resolution 3/4
# interp layer does not support 3/4 scale for ground truth
# instead we interpolate score map
layer {
  name: "loss_res075"
  type: "SoftmaxWithLoss"
  bottom: "fc1_voc12_res075_interp"
  bottom: "label_shrink"
  loss_param {
    ignore_label: 255
  }
  include: { phase: TRAIN }
}
layer {
  name: "accuracy_res075"
  type: "SegAccuracy"
  bottom: "fc1_voc12_res075_interp"
  bottom: "label_shrink"
  top: "accuracy_res075"
  seg_accuracy_param {
    ignore_label: 255
  } 
}

## resolution 1/2
layer {
  bottom: "label"
  top: "label_shrink16"
  name: "label_shrink16"
  type: "Interp"
  interp_param {
    shrink_factor: 16
    pad_beg: 0
    pad_end: 0
  }
}
layer {
  name: "loss_res05"
  type: "SoftmaxWithLoss"
  bottom: "fc1_voc12_res05"
  bottom: "label_shrink16"
  loss_param {
    ignore_label: 255
  }
  include: { phase: TRAIN }
}
layer {
  name: "accuracy_res05"
  type: "SegAccuracy"
  bottom: "fc1_voc12_res05"
  bottom: "label_shrink16"
  top: "accuracy_res05"
  seg_accuracy_param {
    ignore_label: 255
  } 
}

